…
Encoder Loss:  0.014647863  || Decoder Loss:  0.002378507 Validation Decoder Loss:  0.36382192
Encoder Loss:  0.014630037  || Decoder Loss:  0.002366629 Validation Decoder Loss:  0.363696
Encoder Loss:  0.0146161625  || Decoder Loss:  0.0023570429 Validation Decoder Loss:  0.36364046
Model: bold_synthesis_net_lr_0.0006217922372840347 Train Intances: 2704 | Validation Instances: 64 | Validation Loss: 0.36364046
Model: "sequential_315"
_________________________________________________________________
Layer (type)                 Output Shape              Param #   
=================================================================
conv3d_transpose_105 (Conv3D (None, 65, 28, 16, 1)     41        
_________________________________________________________________
reshape_105 (Reshape)        (None, 1820, 16, 1)       0         
=================================================================
Total params: 41
Trainable params: 41
Non-trainable params: 0
_________________________________________________________________
None
Model: "sequential_316"
_________________________________________________________________
Layer (type)                 Output Shape              Param #   
=================================================================
conv2d_105 (Conv2D)          (None, 1820, 16, 1)       789       
=================================================================
Total params: 789
Trainable params: 789
Non-trainable params: 0
_________________________________________________________________
None
Model: "sequential_317"
_________________________________________________________________
Layer (type)                 Output Shape              Param #   
=================================================================
conv2d_transpose_105 (Conv2D (None, 2607, 16, 1)       789       
=================================================================
Total params: 789
Trainable params: 789
Non-trainable params: 0
_________________________________________________________________
None
Optimized Parameters: [6.70771985e-04 3.71587509e-01 6.03183109e-01 8.71381868e-01
 3.22005780e-01 2.00000000e+00 1.82000000e+03]
Optimized Validation Decoder Loss: 0.04061190038919449











Optimizing at level  2
Model: "sequential_318"
_________________________________________________________________
Layer (type)                 Output Shape              Param #   
=================================================================
conv3d_transpose_107 (Conv3D (None, 65, 16, 16, 1)     25        
_________________________________________________________________
dropout_318 (Dropout)        (None, 65, 16, 16, 1)     0         
_________________________________________________________________
conv3d_transpose_108 (Conv3D (None, 65, 28, 16, 1)     14        
_________________________________________________________________
reshape_106 (Reshape)        (None, 1820, 16, 1)       0         
=================================================================
Total params: 39
Trainable params: 39
Non-trainable params: 0
_________________________________________________________________
None
Model: "sequential_320"
_________________________________________________________________
Layer (type)                 Output Shape              Param #   
=================================================================
conv2d_106 (Conv2D)          (None, 1870, 16, 1)       739       
_________________________________________________________________
dropout_320 (Dropout)        (None, 1870, 16, 1)       0         
_________________________________________________________________
conv2d_107 (Conv2D)          (None, 1820, 16, 1)       52        
=================================================================
Total params: 791
Trainable params: 791
Non-trainable params: 0
_________________________________________________________________
None
Model: "sequential_321"
_________________________________________________________________
Layer (type)                 Output Shape              Param #   
=================================================================
conv2d_transpose_106 (Conv2D (None, 2420, 16, 1)       602       
_________________________________________________________________
dropout_322 (Dropout)        (None, 2420, 16, 1)       0         
_________________________________________________________________
conv2d_transpose_107 (Conv2D (None, 2607, 16, 1)       189       
=================================================================
Total params: 791
Trainable params: 791
Non-trainable params: 0
_________________________________________________________________
None
Starting training
Encoder Loss:  0.07012733  || Decoder Loss:  0.012078587 Validation Decoder Loss:  0.389202
Encoder Loss:  0.051819436  || Decoder Loss:  0.0077168765 Validation Decoder Loss:  0.29781604
…
Encoder Loss:  0.028877633  || Decoder Loss:  0.002284146 Validation Decoder Loss:  0.38540497
Encoder Loss:  0.028874513  || Decoder Loss:  0.0022809603 Validation Decoder Loss:  0.38059574
reconstraining parameters GP_regression.rbf
reconstraining parameters GP_regression.Gaussian_noise.variance
Model: bold_synthesis_net_lr_0.0005016464840024781 Train Intances: 2704 | Validation Instances: 64 | Validation Loss: 0.38059574
Model: "sequential_323"
_________________________________________________________________
Layer (type)                 Output Shape              Param #   
=================================================================
conv2d_108 (Conv2D)          (None, 2580, 16, 1)       29        
_________________________________________________________________
dropout_324 (Dropout)        (None, 2580, 16, 1)       0         
_________________________________________________________________
conv2d_109 (Conv2D)          (None, 1820, 16, 1)       762       
=================================================================
Total params: 791
Trainable params: 791
Non-trainable params: 0
_________________________________________________________________
None
Model: "sequential_324"
_________________________________________________________________
Layer (type)                 Output Shape              Param #   
=================================================================
conv2d_transpose_108 (Conv2D (None, 2450, 16, 1)       632       
_________________________________________________________________
dropout_326 (Dropout)        (None, 2450, 16, 1)       0         
_________________________________________________________________
conv2d_transpose_109 (Conv2D (None, 2607, 16, 1)       159       
=================================================================
Total params: 791
Trainable params: 791
Non-trainable params: 0
_________________________________________________________________
None
Model: "sequential_326"
_________________________________________________________________
Layer (type)                 Output Shape              Param #   
=================================================================
conv2d_110 (Conv2D)          (None, 2200, 16, 1)       409       
_________________________________________________________________
dropout_328 (Dropout)        (None, 2200, 16, 1)       0         
_________________________________________________________________
conv2d_111 (Conv2D)          (None, 1820, 16, 1)       382       
=================================================================
Total params: 791
Trainable params: 791
Non-trainable params: 0
_________________________________________________________________
None
Model: "sequential_327"
_________________________________________________________________
Layer (type)                 Output Shape              Param #   
=================================================================
conv2d_transpose_110 (Conv2D (None, 1820, 16, 1)       2         
_________________________________________________________________
dropout_330 (Dropout)        (None, 1820, 16, 1)       0         
_________________________________________________________________
conv2d_transpose_111 (Conv2D (None, 2607, 16, 1)       789       
=================================================================
Total params: 791
Trainable params: 791
Non-trainable params: 0
_________________________________________________________________
None
Model: "sequential_329"
_________________________________________________________________
Layer (type)                 Output Shape              Param #   
=================================================================
conv2d_112 (Conv2D)          (None, 1920, 16, 1)       689       
_________________________________________________________________
dropout_332 (Dropout)        (None, 1920, 16, 1)       0         
_________________________________________________________________
conv2d_113 (Conv2D)          (None, 1820, 16, 1)       102       
=================================================================
Total params: 791
Trainable params: 791
Non-trainable params: 0
_________________________________________________________________
None
Model: "sequential_330"
_________________________________________________________________
Layer (type)                 Output Shape              Param #   
=================================================================
conv2d_transpose_112 (Conv2D (None, 2570, 16, 1)       752       
_________________________________________________________________
dropout_334 (Dropout)        (None, 2570, 16, 1)       0         
_________________________________________________________________
conv2d_transpose_113 (Conv2D (None, 2607, 16, 1)       39        
=================================================================
Total params: 791
Trainable params: 791
Non-trainable params: 0
_________________________________________________________________
None
Model: "sequential_332"
_________________________________________________________________
Layer (type)                 Output Shape              Param #   
=================================================================
conv2d_114 (Conv2D)          (None, 1970, 16, 1)       639       
_________________________________________________________________
dropout_336 (Dropout)        (None, 1970, 16, 1)       0         
_________________________________________________________________
conv2d_115 (Conv2D)          (None, 1820, 16, 1)       152       
=================================================================
Total params: 791
Trainable params: 791
Non-trainable params: 0
_________________________________________________________________
None
Model: "sequential_333"
_________________________________________________________________
Layer (type)                 Output Shape              Param #   
=================================================================
conv2d_transpose_114 (Conv2D (None, 2160, 16, 1)       342       
_________________________________________________________________
dropout_338 (Dropout)        (None, 2160, 16, 1)       0         
_________________________________________________________________
conv2d_transpose_115 (Conv2D (None, 2607, 16, 1)       449       
=================================================================
Total params: 791
Trainable params: 791
Non-trainable params: 0
_________________________________________________________________
None
Started Optimization Process
Model: "sequential_335"
_________________________________________________________________
Layer (type)                 Output Shape              Param #   
=================================================================
conv2d_116 (Conv2D)          (None, 1850, 16, 1)       759       
_________________________________________________________________
dropout_340 (Dropout)        (None, 1850, 16, 1)       0         
_________________________________________________________________
conv2d_117 (Conv2D)          (None, 1820, 16, 1)       32        
=================================================================
Total params: 791
Trainable params: 791
Non-trainable params: 0
_________________________________________________________________
None
Model: "sequential_336"
_________________________________________________________________
Layer (type)                 Output Shape              Param #   
=================================================================
conv2d_transpose_116 (Conv2D (None, 2430, 16, 1)       612       
_________________________________________________________________
dropout_342 (Dropout)        (None, 2430, 16, 1)       0         
_________________________________________________________________
conv2d_transpose_117 (Conv2D (None, 2607, 16, 1)       179       
=================================================================
Total params: 791
Trainable params: 791
Non-trainable params: 0
_________________________________________________________________
None
Model: "sequential_338"
_________________________________________________________________
Layer (type)                 Output Shape              Param #   
=================================================================
conv2d_118 (Conv2D)          (None, 2220, 16, 1)       389       
_________________________________________________________________
dropout_344 (Dropout)        (None, 2220, 16, 1)       0         
_________________________________________________________________
conv2d_119 (Conv2D)          (None, 1820, 16, 1)       402       
=================================================================
Total params: 791
Trainable params: 791
Non-trainable params: 0
_________________________________________________________________
None
Model: "sequential_339"
_________________________________________________________________
Layer (type)                 Output Shape              Param #   
=================================================================
conv2d_transpose_118 (Conv2D (None, 2500, 16, 1)       682       
_________________________________________________________________
dropout_346 (Dropout)        (None, 2500, 16, 1)       0         
_________________________________________________________________
conv2d_transpose_119 (Conv2D (None, 2607, 16, 1)       109       
=================================================================
Total params: 791
Trainable params: 791
Non-trainable params: 0
_________________________________________________________________
None
Model: "sequential_341"
_________________________________________________________________
Layer (type)                 Output Shape              Param #   
=================================================================
conv2d_120 (Conv2D)          (None, 2460, 16, 1)       149       
_________________________________________________________________
dropout_348 (Dropout)        (None, 2460, 16, 1)       0         
_________________________________________________________________
conv2d_121 (Conv2D)          (None, 1820, 16, 1)       642       
=================================================================
Total params: 791
Trainable params: 791
Non-trainable params: 0
_________________________________________________________________
None
Model: "sequential_342"
_________________________________________________________________
Layer (type)                 Output Shape              Param #   
=================================================================
conv2d_transpose_120 (Conv2D (None, 2070, 16, 1)       252       
_________________________________________________________________
dropout_350 (Dropout)        (None, 2070, 16, 1)       0         
_________________________________________________________________
conv2d_transpose_121 (Conv2D (None, 2607, 16, 1)       539       
=================================================================
Total params: 791
Trainable params: 791
Non-trainable params: 0
_________________________________________________________________
None
Model: "sequential_344"
_________________________________________________________________
Layer (type)                 Output Shape              Param #   
=================================================================
conv2d_122 (Conv2D)          (None, 1920, 16, 1)       689       
_________________________________________________________________
dropout_352 (Dropout)        (None, 1920, 16, 1)       0         
_________________________________________________________________
conv2d_123 (Conv2D)          (None, 1820, 16, 1)       102       
=================================================================
Total params: 791
Trainable params: 791
Non-trainable params: 0
_________________________________________________________________
None
Model: "sequential_345"
_________________________________________________________________
Layer (type)                 Output Shape              Param #   
=================================================================
conv2d_transpose_122 (Conv2D (None, 1910, 16, 1)       92        
_________________________________________________________________
dropout_354 (Dropout)        (None, 1910, 16, 1)       0         
_________________________________________________________________
conv2d_transpose_123 (Conv2D (None, 2607, 16, 1)       699       
=================================================================
Total params: 791
Trainable params: 791
Non-trainable params: 0
_________________________________________________________________
None
Model: "sequential_347"
_________________________________________________________________
Layer (type)                 Output Shape              Param #   
=================================================================
conv2d_124 (Conv2D)          (None, 2020, 16, 1)       589       
_________________________________________________________________
dropout_356 (Dropout)        (None, 2020, 16, 1)       0         
_________________________________________________________________
conv2d_125 (Conv2D)          (None, 1820, 16, 1)       202       
=================================================================
Total params: 791
Trainable params: 791
Non-trainable params: 0
_________________________________________________________________
None
Model: "sequential_348"
_________________________________________________________________
Layer (type)                 Output Shape              Param #   
=================================================================
conv2d_transpose_124 (Conv2D (None, 1860, 16, 1)       42        
_________________________________________________________________
dropout_358 (Dropout)        (None, 1860, 16, 1)       0         
_________________________________________________________________
conv2d_transpose_125 (Conv2D (None, 2607, 16, 1)       749       
=================================================================
Total params: 791
Trainable params: 791
Non-trainable params: 0
_________________________________________________________________
None
Model: "sequential_350"
_________________________________________________________________
Layer (type)                 Output Shape              Param #   
=================================================================
conv2d_126 (Conv2D)          (None, 2560, 16, 1)       49        
_________________________________________________________________
dropout_360 (Dropout)        (None, 2560, 16, 1)       0         
_________________________________________________________________
conv2d_127 (Conv2D)          (None, 1820, 16, 1)       742       
=================================================================
Total params: 791
Trainable params: 791
Non-trainable params: 0
_________________________________________________________________
None
Model: "sequential_351"
_________________________________________________________________
Layer (type)                 Output Shape              Param #   
=================================================================
conv2d_transpose_126 (Conv2D (None, 2030, 16, 1)       212       
_________________________________________________________________
dropout_362 (Dropout)        (None, 2030, 16, 1)       0         
_________________________________________________________________
conv2d_transpose_127 (Conv2D (None, 2607, 16, 1)       579       
=================================================================
Total params: 791
Trainable params: 791
Non-trainable params: 0
_________________________________________________________________
None
Model: "sequential_353"
_________________________________________________________________
Layer (type)                 Output Shape              Param #   
=================================================================
conv2d_128 (Conv2D)          (None, 2320, 16, 1)       289       
_________________________________________________________________
dropout_364 (Dropout)        (None, 2320, 16, 1)       0         
_________________________________________________________________
conv2d_129 (Conv2D)          (None, 1820, 16, 1)       502       
=================================================================
Total params: 791
Trainable params: 791
Non-trainable params: 0
_________________________________________________________________
None
Model: "sequential_354"
_________________________________________________________________
Layer (type)                 Output Shape              Param #   
=================================================================
conv2d_transpose_128 (Conv2D (None, 2600, 16, 1)       782       
_________________________________________________________________
dropout_366 (Dropout)        (None, 2600, 16, 1)       0         
_________________________________________________________________
conv2d_transpose_129 (Conv2D (None, 2607, 16, 1)       9         
=================================================================
Total params: 791
Trainable params: 791
Non-trainable params: 0
_________________________________________________________________
None
Model: "sequential_356"
_________________________________________________________________
Layer (type)                 Output Shape              Param #   
=================================================================
conv2d_130 (Conv2D)          (None, 2600, 16, 1)       9         
_________________________________________________________________
dropout_368 (Dropout)        (None, 2600, 16, 1)       0         
_________________________________________________________________
conv2d_131 (Conv2D)          (None, 1820, 16, 1)       782       
=================================================================
Total params: 791
Trainable params: 791
Non-trainable params: 0
_________________________________________________________________
None
Model: "sequential_357"
_________________________________________________________________
Layer (type)                 Output Shape              Param #   
=================================================================
conv2d_transpose_130 (Conv2D (None, 2060, 16, 1)       242       
_________________________________________________________________
dropout_370 (Dropout)        (None, 2060, 16, 1)       0         
_________________________________________________________________
conv2d_transpose_131 (Conv2D (None, 2607, 16, 1)       549       
=================================================================
Total params: 791
Trainable params: 791
Non-trainable params: 0
_________________________________________________________________
None
Model: "sequential_359"
_________________________________________________________________
Layer (type)                 Output Shape              Param #   
=================================================================
conv2d_132 (Conv2D)          (None, 1840, 16, 1)       769       
_________________________________________________________________
dropout_372 (Dropout)        (None, 1840, 16, 1)       0         
_________________________________________________________________
conv2d_133 (Conv2D)          (None, 1820, 16, 1)       22        
=================================================================
Total params: 791
Trainable params: 791
Non-trainable params: 0
_________________________________________________________________
None
Model: "sequential_360"
_________________________________________________________________
Layer (type)                 Output Shape              Param #   
=================================================================
conv2d_transpose_132 (Conv2D (None, 2400, 16, 1)       582       
_________________________________________________________________
dropout_374 (Dropout)        (None, 2400, 16, 1)       0         
_________________________________________________________________
conv2d_transpose_133 (Conv2D (None, 2607, 16, 1)       209       
=================================================================
Total params: 791
Trainable params: 791
Non-trainable params: 0
_________________________________________________________________
None
Model: "sequential_362"
_________________________________________________________________
Layer (type)                 Output Shape              Param #   
=================================================================
conv2d_134 (Conv2D)          (None, 2300, 16, 1)       309       
_________________________________________________________________
dropout_376 (Dropout)        (None, 2300, 16, 1)       0         
_________________________________________________________________
conv2d_135 (Conv2D)          (None, 1820, 16, 1)       482       
=================================================================
Total params: 791
Trainable params: 791
Non-trainable params: 0
_________________________________________________________________
None
Model: "sequential_363"
_________________________________________________________________
Layer (type)                 Output Shape              Param #   
=================================================================
conv2d_transpose_134 (Conv2D (None, 1840, 16, 1)       22        
_________________________________________________________________
dropout_378 (Dropout)        (None, 1840, 16, 1)       0         
_________________________________________________________________
conv2d_transpose_135 (Conv2D (None, 2607, 16, 1)       769       
=================================================================
Total params: 791
Trainable params: 791
Non-trainable params: 0
_________________________________________________________________
None
Model: "sequential_365"
_________________________________________________________________
Layer (type)                 Output Shape              Param #   
=================================================================
conv2d_136 (Conv2D)          (None, 2010, 16, 1)       599       
_________________________________________________________________
dropout_380 (Dropout)        (None, 2010, 16, 1)       0         
_________________________________________________________________
conv2d_137 (Conv2D)          (None, 1820, 16, 1)       192       
=================================================================
Total params: 791
Trainable params: 791
Non-trainable params: 0
_________________________________________________________________
None
Model: "sequential_366"
_________________________________________________________________
Layer (type)                 Output Shape              Param #   
=================================================================
conv2d_transpose_136 (Conv2D (None, 2220, 16, 1)       402       
_________________________________________________________________
dropout_382 (Dropout)        (None, 2220, 16, 1)       0         
_________________________________________________________________
conv2d_transpose_137 (Conv2D (None, 2607, 16, 1)       389       
=================================================================
Total params: 791
Trainable params: 791
Non-trainable params: 0
_________________________________________________________________
None
Model: "sequential_368"
_________________________________________________________________
Layer (type)                 Output Shape              Param #   
=================================================================
conv2d_138 (Conv2D)          (None, 1930, 16, 1)       679       
_________________________________________________________________
dropout_384 (Dropout)        (None, 1930, 16, 1)       0         
_________________________________________________________________
conv2d_139 (Conv2D)          (None, 1820, 16, 1)       112       
=================================================================
Total params: 791
Trainable params: 791
Non-trainable params: 0
_________________________________________________________________
None
Model: "sequential_369"
_________________________________________________________________
Layer (type)                 Output Shape              Param #   
=================================================================
conv2d_transpose_138 (Conv2D (None, 2420, 16, 1)       602       
_________________________________________________________________
dropout_386 (Dropout)        (None, 2420, 16, 1)       0         
_________________________________________________________________
conv2d_transpose_139 (Conv2D (None, 2607, 16, 1)       189       
=================================================================
Total params: 791
Trainable params: 791
Non-trainable params: 0
_________________________________________________________________
None
Model: "sequential_371"
_________________________________________________________________
Layer (type)                 Output Shape              Param #   
=================================================================
conv2d_140 (Conv2D)          (None, 1910, 16, 1)       699       
_________________________________________________________________
dropout_388 (Dropout)        (None, 1910, 16, 1)       0         
_________________________________________________________________
conv2d_141 (Conv2D)          (None, 1820, 16, 1)       92        
=================================================================
Total params: 791
Trainable params: 791
Non-trainable params: 0
_________________________________________________________________
None
Model: "sequential_372"
_________________________________________________________________
Layer (type)                 Output Shape              Param #   
=================================================================
conv2d_transpose_140 (Conv2D (None, 2460, 16, 1)       642       
_________________________________________________________________
dropout_390 (Dropout)        (None, 2460, 16, 1)       0         
_________________________________________________________________
conv2d_transpose_141 (Conv2D (None, 2607, 16, 1)       149       
=================================================================
Total params: 791
Trainable params: 791
Non-trainable params: 0
_________________________________________________________________
None
Model: "sequential_374"
_________________________________________________________________
Layer (type)                 Output Shape              Param #   
=================================================================
conv2d_142 (Conv2D)          (None, 2570, 16, 1)       39        
_________________________________________________________________
dropout_392 (Dropout)        (None, 2570, 16, 1)       0         
_________________________________________________________________
conv2d_143 (Conv2D)          (None, 1820, 16, 1)       752       
=================================================================
Total params: 791
Trainable params: 791
Non-trainable params: 0
_________________________________________________________________
None
Model: "sequential_375"
_________________________________________________________________
Layer (type)                 Output Shape              Param #   
=================================================================
conv2d_transpose_142 (Conv2D (None, 2010, 16, 1)       192       
_________________________________________________________________
dropout_394 (Dropout)        (None, 2010, 16, 1)       0         
_________________________________________________________________
conv2d_transpose_143 (Conv2D (None, 2607, 16, 1)       599       
=================================================================
Total params: 791
Trainable params: 791
Non-trainable params: 0
_________________________________________________________________
None
Model: "sequential_377"
_________________________________________________________________
Layer (type)                 Output Shape              Param #   
=================================================================
conv2d_144 (Conv2D)          (None, 1840, 16, 1)       769       
_________________________________________________________________
dropout_396 (Dropout)        (None, 1840, 16, 1)       0         
_________________________________________________________________
conv2d_145 (Conv2D)          (None, 1820, 16, 1)       22        
=================================================================
Total params: 791
Trainable params: 791
Non-trainable params: 0
_________________________________________________________________
None
Model: "sequential_378"
_________________________________________________________________
Layer (type)                 Output Shape              Param #   
=================================================================
conv2d_transpose_144 (Conv2D (None, 2440, 16, 1)       622       
_________________________________________________________________
dropout_398 (Dropout)        (None, 2440, 16, 1)       0         
_________________________________________________________________
conv2d_transpose_145 (Conv2D (None, 2607, 16, 1)       169       
=================================================================
Total params: 791
Trainable params: 791
Non-trainable params: 0
_________________________________________________________________
None
Model: "sequential_380"
_________________________________________________________________
Layer (type)                 Output Shape              Param #   
=================================================================
conv2d_146 (Conv2D)          (None, 1880, 16, 1)       729       
_________________________________________________________________
dropout_400 (Dropout)        (None, 1880, 16, 1)       0         
_________________________________________________________________
conv2d_147 (Conv2D)          (None, 1820, 16, 1)       62        
=================================================================
Total params: 791
Trainable params: 791
Non-trainable params: 0
_________________________________________________________________
None
Model: "sequential_381"
_________________________________________________________________
Layer (type)                 Output Shape              Param #   
=================================================================
conv2d_transpose_146 (Conv2D (None, 2370, 16, 1)       552       
_________________________________________________________________
dropout_402 (Dropout)        (None, 2370, 16, 1)       0         
_________________________________________________________________
conv2d_transpose_147 (Conv2D (None, 2607, 16, 1)       239       
=================================================================
Total params: 791
Trainable params: 791
Non-trainable params: 0
_________________________________________________________________
None
Model: "sequential_383"
_________________________________________________________________
Layer (type)                 Output Shape              Param #   
=================================================================
conv2d_148 (Conv2D)          (None, 2370, 16, 1)       239       
_________________________________________________________________
dropout_404 (Dropout)        (None, 2370, 16, 1)       0         
_________________________________________________________________
conv2d_149 (Conv2D)          (None, 1820, 16, 1)       552       
=================================================================
Total params: 791
Trainable params: 791
Non-trainable params: 0
_________________________________________________________________
None
Model: "sequential_384"
_________________________________________________________________
Layer (type)                 Output Shape              Param #   
=================================================================
conv2d_transpose_148 (Conv2D (None, 1830, 16, 1)       12        
_________________________________________________________________
dropout_406 (Dropout)        (None, 1830, 16, 1)       0         
_________________________________________________________________
conv2d_transpose_149 (Conv2D (None, 2607, 16, 1)       779       
=================================================================
Total params: 791
Trainable params: 791
Non-trainable params: 0
_________________________________________________________________
None
Model: "sequential_385"
_________________________________________________________________
Layer (type)                 Output Shape              Param #   
=================================================================
conv3d_transpose_110 (Conv3D (None, 65, 8, 16, 1)      9         
_________________________________________________________________
dropout_408 (Dropout)        (None, 65, 8, 16, 1)      0         
_________________________________________________________________
conv3d_transpose_111 (Conv3D (None, 65, 28, 16, 1)     15        
_________________________________________________________________
reshape_107 (Reshape)        (None, 1820, 16, 1)       0         
=================================================================
Total params: 24
Trainable params: 24
Non-trainable params: 0
_________________________________________________________________
None
Model: "sequential_387"
_________________________________________________________________
Layer (type)                 Output Shape              Param #   
=================================================================
conv2d_150 (Conv2D)          (None, 2360, 16, 1)       249       
_________________________________________________________________
dropout_410 (Dropout)        (None, 2360, 16, 1)       0         
_________________________________________________________________
conv2d_151 (Conv2D)          (None, 1820, 16, 1)       542       
=================================================================
Total params: 791
Trainable params: 791
Non-trainable params: 0
_________________________________________________________________
None
Model: "sequential_388"
_________________________________________________________________
Layer (type)                 Output Shape              Param #   
=================================================================
conv2d_transpose_150 (Conv2D (None, 2490, 16, 1)       672       
_________________________________________________________________
dropout_412 (Dropout)        (None, 2490, 16, 1)       0         
_________________________________________________________________
conv2d_transpose_151 (Conv2D (None, 2607, 16, 1)       119       
=================================================================
Total params: 791
Trainable params: 791
Non-trainable params: 0
_________________________________________________________________
None
Starting training
Encoder Loss:  0.026020905  || Decoder Loss:  0.007358582 Validation Decoder Loss:  0.45538992
Encoder Loss:  0.024676427  || Decoder Loss:  0.00779848 Validation Decoder Loss:  0.34803277
…
Encoder Loss:  0.010953036  || Decoder Loss:  0.0005559456 Validation Decoder Loss:  0.031548448
Encoder Loss:  0.010940026  || Decoder Loss:  0.00053830835 Validation Decoder Loss:  0.03068012
Encoder Loss:  0.010948818  || Decoder Loss:  0.00054679543 Validation Decoder Loss:  0.029415622
Model: bold_synthesis_net_lr_0.0007516802280515725 Train Intances: 2704 | Validation Instances: 64 | Validation Loss: 0.029415622
Model: "sequential_390"
_________________________________________________________________
Layer (type)                 Output Shape              Param #   
=================================================================
conv2d_152 (Conv2D)          (None, 1950, 16, 1)       659       
_________________________________________________________________
dropout_414 (Dropout)        (None, 1950, 16, 1)       0         
_________________________________________________________________
conv2d_153 (Conv2D)          (None, 1820, 16, 1)       132       
=================================================================
Total params: 791
Trainable params: 791
Non-trainable params: 0
_________________________________________________________________
None
Model: "sequential_391"
_________________________________________________________________
Layer (type)                 Output Shape              Param #   
=================================================================
conv2d_transpose_152 (Conv2D (None, 2440, 16, 1)       622       
_________________________________________________________________
dropout_416 (Dropout)        (None, 2440, 16, 1)       0         
_________________________________________________________________
conv2d_transpose_153 (Conv2D (None, 2607, 16, 1)       169       
=================================================================
Total params: 791
Trainable params: 791
Non-trainable params: 0
_________________________________________________________________
None
Model: "sequential_393"
_________________________________________________________________
Layer (type)                 Output Shape              Param #   
=================================================================
conv2d_154 (Conv2D)          (None, 2110, 16, 1)       499       
_________________________________________________________________
dropout_418 (Dropout)        (None, 2110, 16, 1)       0         
_________________________________________________________________
conv2d_155 (Conv2D)          (None, 1820, 16, 1)       292       
=================================================================
Total params: 791
Trainable params: 791
Non-trainable params: 0
_________________________________________________________________
None
Model: "sequential_394"
_________________________________________________________________
Layer (type)                 Output Shape              Param #   
=================================================================
conv2d_transpose_154 (Conv2D (None, 2140, 16, 1)       322       
_________________________________________________________________
dropout_420 (Dropout)        (None, 2140, 16, 1)       0         
_________________________________________________________________
conv2d_transpose_155 (Conv2D (None, 2607, 16, 1)       469       
=================================================================
Total params: 791
Trainable params: 791
Non-trainable params: 0
_________________________________________________________________
None
Model: "sequential_396"
_________________________________________________________________
Layer (type)                 Output Shape              Param #   
=================================================================
conv2d_156 (Conv2D)          (None, 2370, 16, 1)       239       
_________________________________________________________________
dropout_422 (Dropout)        (None, 2370, 16, 1)       0         
_________________________________________________________________
conv2d_157 (Conv2D)          (None, 1820, 16, 1)       552       
=================================================================
Total params: 791
Trainable params: 791
Non-trainable params: 0
_________________________________________________________________
None
Model: "sequential_397"
_________________________________________________________________
Layer (type)                 Output Shape              Param #   
=================================================================
conv2d_transpose_156 (Conv2D (None, 2510, 16, 1)       692       
_________________________________________________________________
dropout_424 (Dropout)        (None, 2510, 16, 1)       0         
_________________________________________________________________
conv2d_transpose_157 (Conv2D (None, 2607, 16, 1)       99        
=================================================================
Total params: 791
Trainable params: 791
Non-trainable params: 0
_________________________________________________________________
None
Model: "sequential_399"
_________________________________________________________________
Layer (type)                 Output Shape              Param #   
=================================================================
conv2d_158 (Conv2D)          (None, 1880, 16, 1)       729       
_________________________________________________________________
dropout_426 (Dropout)        (None, 1880, 16, 1)       0         
_________________________________________________________________
conv2d_159 (Conv2D)          (None, 1820, 16, 1)       62        
=================================================================
Total params: 791
Trainable params: 791
Non-trainable params: 0
_________________________________________________________________
None
Model: "sequential_400"
_________________________________________________________________
Layer (type)                 Output Shape              Param #   
=================================================================
conv2d_transpose_158 (Conv2D (None, 2110, 16, 1)       292       
_________________________________________________________________
dropout_428 (Dropout)        (None, 2110, 16, 1)       0         
_________________________________________________________________
conv2d_transpose_159 (Conv2D (None, 2607, 16, 1)       499       
=================================================================
Total params: 791
Trainable params: 791
Non-trainable params: 0
_________________________________________________________________
None
Model: "sequential_402"
_________________________________________________________________
Layer (type)                 Output Shape              Param #   
=================================================================
conv2d_160 (Conv2D)          (None, 2270, 16, 1)       339       
_________________________________________________________________
dropout_430 (Dropout)        (None, 2270, 16, 1)       0         
_________________________________________________________________
conv2d_161 (Conv2D)          (None, 1820, 16, 1)       452       
=================================================================
Total params: 791
Trainable params: 791
Non-trainable params: 0
_________________________________________________________________
None
Model: "sequential_403"
_________________________________________________________________
Layer (type)                 Output Shape              Param #   
=================================================================
conv2d_transpose_160 (Conv2D (None, 1860, 16, 1)       42        
_________________________________________________________________
dropout_432 (Dropout)        (None, 1860, 16, 1)       0         
_________________________________________________________________
conv2d_transpose_161 (Conv2D (None, 2607, 16, 1)       749       
=================================================================
Total params: 791
Trainable params: 791
Non-trainable params: 0
_________________________________________________________________
None
Model: "sequential_405"
_________________________________________________________________
Layer (type)                 Output Shape              Param #   
=================================================================
conv2d_162 (Conv2D)          (None, 2060, 16, 1)       549       
_________________________________________________________________
dropout_434 (Dropout)        (None, 2060, 16, 1)       0         
_________________________________________________________________
conv2d_163 (Conv2D)          (None, 1820, 16, 1)       242       
=================================================================
Total params: 791
Trainable params: 791
Non-trainable params: 0
_________________________________________________________________
None
Model: "sequential_406"
_________________________________________________________________
Layer (type)                 Output Shape              Param #   
=================================================================
conv2d_transpose_162 (Conv2D (None, 2440, 16, 1)       622       
_________________________________________________________________
dropout_436 (Dropout)        (None, 2440, 16, 1)       0         
_________________________________________________________________
conv2d_transpose_163 (Conv2D (None, 2607, 16, 1)       169       
=================================================================
Total params: 791
Trainable params: 791
Non-trainable params: 0
_________________________________________________________________
None
Model: "sequential_408"
_________________________________________________________________
Layer (type)                 Output Shape              Param #   
=================================================================
conv2d_164 (Conv2D)          (None, 1840, 16, 1)       769       
_________________________________________________________________
dropout_438 (Dropout)        (None, 1840, 16, 1)       0         
_________________________________________________________________
conv2d_165 (Conv2D)          (None, 1820, 16, 1)       22        
=================================================================
Total params: 791
Trainable params: 791
Non-trainable params: 0
_________________________________________________________________
None
Model: "sequential_409"
_________________________________________________________________
Layer (type)                 Output Shape              Param #   
=================================================================
conv2d_transpose_164 (Conv2D (None, 2440, 16, 1)       622       
_________________________________________________________________
dropout_440 (Dropout)        (None, 2440, 16, 1)       0         
_________________________________________________________________
conv2d_transpose_165 (Conv2D (None, 2607, 16, 1)       169       
=================================================================
Total params: 791
Trainable params: 791
Non-trainable params: 0
_________________________________________________________________
None
Model: "sequential_411"
_________________________________________________________________
Layer (type)                 Output Shape              Param #   
=================================================================
conv2d_166 (Conv2D)          (None, 2330, 16, 1)       279       
_________________________________________________________________
dropout_442 (Dropout)        (None, 2330, 16, 1)       0         
_________________________________________________________________
conv2d_167 (Conv2D)          (None, 1820, 16, 1)       512       
=================================================================
Total params: 791
Trainable params: 791
Non-trainable params: 0
_________________________________________________________________
None
Model: "sequential_412"
_________________________________________________________________
Layer (type)                 Output Shape              Param #   
=================================================================
conv2d_transpose_166 (Conv2D (None, 2500, 16, 1)       682       
_________________________________________________________________
dropout_444 (Dropout)        (None, 2500, 16, 1)       0         
_________________________________________________________________
conv2d_transpose_167 (Conv2D (None, 2607, 16, 1)       109       
=================================================================
Total params: 791
Trainable params: 791
Non-trainable params: 0
_________________________________________________________________
None
Model: "sequential_414"
_________________________________________________________________
Layer (type)                 Output Shape              Param #   
=================================================================
conv2d_168 (Conv2D)          (None, 1870, 16, 1)       739       
_________________________________________________________________
dropout_446 (Dropout)        (None, 1870, 16, 1)       0         
_________________________________________________________________
conv2d_169 (Conv2D)          (None, 1820, 16, 1)       52        
=================================================================
Total params: 791
Trainable params: 791
Non-trainable params: 0
_________________________________________________________________
None
Model: "sequential_415"
_________________________________________________________________
Layer (type)                 Output Shape              Param #   
=================================================================
conv2d_transpose_168 (Conv2D (None, 2400, 16, 1)       582       
_________________________________________________________________
dropout_448 (Dropout)        (None, 2400, 16, 1)       0         
_________________________________________________________________
conv2d_transpose_169 (Conv2D (None, 2607, 16, 1)       209       
=================================================================
Total params: 791
Trainable params: 791
Non-trainable params: 0
_________________________________________________________________
None
Model: "sequential_417"
_________________________________________________________________
Layer (type)                 Output Shape              Param #   
=================================================================
conv2d_170 (Conv2D)          (None, 2360, 16, 1)       249       
_________________________________________________________________
dropout_450 (Dropout)        (None, 2360, 16, 1)       0         
_________________________________________________________________
conv2d_171 (Conv2D)          (None, 1820, 16, 1)       542       
=================================================================
Total params: 791
Trainable params: 791
Non-trainable params: 0
_________________________________________________________________
None
Model: "sequential_418"
_________________________________________________________________
Layer (type)                 Output Shape              Param #   
=================================================================
conv2d_transpose_170 (Conv2D (None, 2470, 16, 1)       652       
_________________________________________________________________
dropout_452 (Dropout)        (None, 2470, 16, 1)       0         
_________________________________________________________________
conv2d_transpose_171 (Conv2D (None, 2607, 16, 1)       139       
=================================================================
Total params: 791
Trainable params: 791
Non-trainable params: 0
_________________________________________________________________
None
Model: "sequential_420"
_________________________________________________________________
Layer (type)                 Output Shape              Param #   
=================================================================
conv2d_172 (Conv2D)          (None, 2480, 16, 1)       129       
_________________________________________________________________
dropout_454 (Dropout)        (None, 2480, 16, 1)       0         
_________________________________________________________________
conv2d_173 (Conv2D)          (None, 1820, 16, 1)       662       
=================================================================
Total params: 791
Trainable params: 791
Non-trainable params: 0
_________________________________________________________________
None
Model: "sequential_421"
_________________________________________________________________
Layer (type)                 Output Shape              Param #   
=================================================================
conv2d_transpose_172 (Conv2D (None, 2450, 16, 1)       632       
_________________________________________________________________
dropout_456 (Dropout)        (None, 2450, 16, 1)       0         
_________________________________________________________________
conv2d_transpose_173 (Conv2D (None, 2607, 16, 1)       159       
=================================================================
Total params: 791
Trainable params: 791
Non-trainable params: 0
_________________________________________________________________
None
Model: "sequential_423"
_________________________________________________________________
Layer (type)                 Output Shape              Param #   
=================================================================
conv2d_174 (Conv2D)          (None, 2320, 16, 1)       289       
_________________________________________________________________
dropout_458 (Dropout)        (None, 2320, 16, 1)       0         
_________________________________________________________________
conv2d_175 (Conv2D)          (None, 1820, 16, 1)       502       
=================================================================
Total params: 791
Trainable params: 791
Non-trainable params: 0
_________________________________________________________________
None
Model: "sequential_424"
_________________________________________________________________
Layer (type)                 Output Shape              Param #   
=================================================================
conv2d_transpose_174 (Conv2D (None, 2490, 16, 1)       672       
_________________________________________________________________
dropout_460 (Dropout)        (None, 2490, 16, 1)       0         
_________________________________________________________________
conv2d_transpose_175 (Conv2D (None, 2607, 16, 1)       119       
=================================================================
Total params: 791
Trainable params: 791
Non-trainable params: 0
_________________________________________________________________
None
Model: "sequential_426"
_________________________________________________________________
Layer (type)                 Output Shape              Param #   
=================================================================
conv2d_176 (Conv2D)          (None, 2290, 16, 1)       319       
_________________________________________________________________
dropout_462 (Dropout)        (None, 2290, 16, 1)       0         
_________________________________________________________________
conv2d_177 (Conv2D)          (None, 1820, 16, 1)       472       
=================================================================
Total params: 791
Trainable params: 791
Non-trainable params: 0
_________________________________________________________________
None
Model: "sequential_427"
_________________________________________________________________
Layer (type)                 Output Shape              Param #   
=================================================================
conv2d_transpose_176 (Conv2D (None, 2440, 16, 1)       622       
_________________________________________________________________
dropout_464 (Dropout)        (None, 2440, 16, 1)       0         
_________________________________________________________________
conv2d_transpose_177 (Conv2D (None, 2607, 16, 1)       169       
=================================================================
Total params: 791
Trainable params: 791
Non-trainable params: 0
_________________________________________________________________
None
Model: "sequential_429"
_________________________________________________________________
Layer (type)                 Output Shape              Param #   
=================================================================
conv2d_178 (Conv2D)          (None, 2130, 16, 1)       479       
_________________________________________________________________
dropout_466 (Dropout)        (None, 2130, 16, 1)       0         
_________________________________________________________________
conv2d_179 (Conv2D)          (None, 1820, 16, 1)       312       
=================================================================
Total params: 791
Trainable params: 791
Non-trainable params: 0
_________________________________________________________________
None
Model: "sequential_430"
_________________________________________________________________
Layer (type)                 Output Shape              Param #   
=================================================================
conv2d_transpose_178 (Conv2D (None, 2600, 16, 1)       782       
_________________________________________________________________
dropout_468 (Dropout)        (None, 2600, 16, 1)       0         
_________________________________________________________________
conv2d_transpose_179 (Conv2D (None, 2607, 16, 1)       9         
=================================================================
Total params: 791
Trainable params: 791
Non-trainable params: 0
_________________________________________________________________
None
Model: "sequential_432"
_________________________________________________________________
Layer (type)                 Output Shape              Param #   
=================================================================
conv2d_180 (Conv2D)          (None, 2430, 16, 1)       179       
_________________________________________________________________
dropout_470 (Dropout)        (None, 2430, 16, 1)       0         
_________________________________________________________________
conv2d_181 (Conv2D)          (None, 1820, 16, 1)       612       
=================================================================
Total params: 791
Trainable params: 791
Non-trainable params: 0
_________________________________________________________________
None
Model: "sequential_433"
_________________________________________________________________
Layer (type)                 Output Shape              Param #   
=================================================================
conv2d_transpose_180 (Conv2D (None, 2410, 16, 1)       592       
_________________________________________________________________
dropout_472 (Dropout)        (None, 2410, 16, 1)       0         
_________________________________________________________________
conv2d_transpose_181 (Conv2D (None, 2607, 16, 1)       199       
=================================================================
Total params: 791
Trainable params: 791
Non-trainable params: 0
_________________________________________________________________
None
Model: "sequential_435"
_________________________________________________________________
Layer (type)                 Output Shape              Param #   
=================================================================
conv2d_182 (Conv2D)          (None, 1850, 16, 1)       759       
_________________________________________________________________
dropout_474 (Dropout)        (None, 1850, 16, 1)       0         
_________________________________________________________________
conv2d_183 (Conv2D)          (None, 1820, 16, 1)       32        
=================================================================
Total params: 791
Trainable params: 791
Non-trainable params: 0
_________________________________________________________________
None
Model: "sequential_436"
_________________________________________________________________
Layer (type)                 Output Shape              Param #   
=================================================================
conv2d_transpose_182 (Conv2D (None, 2520, 16, 1)       702       
_________________________________________________________________
dropout_476 (Dropout)        (None, 2520, 16, 1)       0         
_________________________________________________________________
conv2d_transpose_183 (Conv2D (None, 2607, 16, 1)       89        
=================================================================
Total params: 791
Trainable params: 791
Non-trainable params: 0
_________________________________________________________________
None
Model: "sequential_437"
_________________________________________________________________
Layer (type)                 Output Shape              Param #   
=================================================================
conv3d_transpose_113 (Conv3D (None, 64, 25, 16, 1)     6         
_________________________________________________________________
dropout_478 (Dropout)        (None, 64, 25, 16, 1)     0         
_________________________________________________________________
conv3d_transpose_114 (Conv3D (None, 65, 28, 16, 1)     9         
_________________________________________________________________
reshape_108 (Reshape)        (None, 1820, 16, 1)       0         
=================================================================
Total params: 15
Trainable params: 15
Non-trainable params: 0
_________________________________________________________________
None
Model: "sequential_439"
_________________________________________________________________
Layer (type)                 Output Shape              Param #   
=================================================================
conv2d_184 (Conv2D)          (None, 2400, 16, 1)       209       
_________________________________________________________________
dropout_480 (Dropout)        (None, 2400, 16, 1)       0         
_________________________________________________________________
conv2d_185 (Conv2D)          (None, 1820, 16, 1)       582       
=================================================================
Total params: 791
Trainable params: 791
Non-trainable params: 0
_________________________________________________________________
None
Model: "sequential_440"
_________________________________________________________________
Layer (type)                 Output Shape              Param #   
=================================================================
conv2d_transpose_184 (Conv2D (None, 2060, 16, 1)       242       
_________________________________________________________________
dropout_482 (Dropout)        (None, 2060, 16, 1)       0         
_________________________________________________________________
conv2d_transpose_185 (Conv2D (None, 2607, 16, 1)       549       
=================================================================
Total params: 791
Trainable params: 791
Non-trainable params: 0
_________________________________________________________________
None
Starting training
Encoder Loss:  0.06824128  || Decoder Loss:  0.008526224 Validation Decoder Loss:  0.67807543
Encoder Loss:  0.054917563  || Decoder Loss:  0.004127442 Validation Decoder Loss:  0.6542375
…
Encoder Loss:  0.03468415  || Decoder Loss:  0.0020138337 Validation Decoder Loss:  0.4268349
Encoder Loss:  0.034673933  || Decoder Loss:  0.0019652653 Validation Decoder Loss:  0.42503417
Encoder Loss:  0.034645364  || Decoder Loss:  0.0018900328 Validation Decoder Loss:  0.39053208
Model: bold_synthesis_net_lr_0.0009567453897836338 Train Intances: 2704 | Validation Instances: 64 | Validation Loss: 0.39053208
Model: "sequential_442"
_________________________________________________________________
Layer (type)                 Output Shape              Param #   
=================================================================
conv2d_186 (Conv2D)          (None, 2420, 16, 1)       189       
_________________________________________________________________
dropout_484 (Dropout)        (None, 2420, 16, 1)       0         
_________________________________________________________________
conv2d_187 (Conv2D)          (None, 1820, 16, 1)       602       
=================================================================
Total params: 791
Trainable params: 791
Non-trainable params: 0
_________________________________________________________________
None
Model: "sequential_443"
_________________________________________________________________
Layer (type)                 Output Shape              Param #   
=================================================================
conv2d_transpose_186 (Conv2D (None, 1910, 16, 1)       92        
_________________________________________________________________
dropout_486 (Dropout)        (None, 1910, 16, 1)       0         
_________________________________________________________________
conv2d_transpose_187 (Conv2D (None, 2607, 16, 1)       699       
=================================================================
Total params: 791
Trainable params: 791
Non-trainable params: 0
_________________________________________________________________
None
Model: "sequential_445"
_________________________________________________________________
Layer (type)                 Output Shape              Param #   
=================================================================
conv2d_188 (Conv2D)          (None, 2540, 16, 1)       69        
_________________________________________________________________
dropout_488 (Dropout)        (None, 2540, 16, 1)       0         
_________________________________________________________________
conv2d_189 (Conv2D)          (None, 1820, 16, 1)       722       
=================================================================
Total params: 791
Trainable params: 791
Non-trainable params: 0
_________________________________________________________________
None
Model: "sequential_446"
_________________________________________________________________
Layer (type)                 Output Shape              Param #   
=================================================================
conv2d_transpose_188 (Conv2D (None, 2510, 16, 1)       692       
_________________________________________________________________
dropout_490 (Dropout)        (None, 2510, 16, 1)       0         
_________________________________________________________________
conv2d_transpose_189 (Conv2D (None, 2607, 16, 1)       99        
=================================================================
Total params: 791
Trainable params: 791
Non-trainable params: 0
_________________________________________________________________
None
Model: "sequential_448"
_________________________________________________________________
Layer (type)                 Output Shape              Param #   
=================================================================
conv2d_190 (Conv2D)          (None, 2140, 16, 1)       469       
_________________________________________________________________
dropout_492 (Dropout)        (None, 2140, 16, 1)       0         
_________________________________________________________________
conv2d_191 (Conv2D)          (None, 1820, 16, 1)       322       
=================================================================
Total params: 791
Trainable params: 791
Non-trainable params: 0
_________________________________________________________________
None
Model: "sequential_449"
_________________________________________________________________
Layer (type)                 Output Shape              Param #   
=================================================================
conv2d_transpose_190 (Conv2D (None, 1950, 16, 1)       132       
_________________________________________________________________
dropout_494 (Dropout)        (None, 1950, 16, 1)       0         
_________________________________________________________________
conv2d_transpose_191 (Conv2D (None, 2607, 16, 1)       659       
=================================================================
Total params: 791
Trainable params: 791
Non-trainable params: 0
_________________________________________________________________
None
Model: "sequential_451"
_________________________________________________________________
Layer (type)                 Output Shape              Param #   
=================================================================
conv2d_192 (Conv2D)          (None, 2290, 16, 1)       319       
_________________________________________________________________
dropout_496 (Dropout)        (None, 2290, 16, 1)       0         
_________________________________________________________________
conv2d_193 (Conv2D)          (None, 1820, 16, 1)       472       
=================================================================
Total params: 791
Trainable params: 791
Non-trainable params: 0
_________________________________________________________________
None
Model: "sequential_452"
_________________________________________________________________
Layer (type)                 Output Shape              Param #   
=================================================================
conv2d_transpose_192 (Conv2D (None, 2360, 16, 1)       542       
_________________________________________________________________
dropout_498 (Dropout)        (None, 2360, 16, 1)       0         
_________________________________________________________________
conv2d_transpose_193 (Conv2D (None, 2607, 16, 1)       249       
=================================================================
Total params: 791
Trainable params: 791
Non-trainable params: 0
_________________________________________________________________
None
Model: "sequential_453"
_________________________________________________________________
Layer (type)                 Output Shape              Param #   
=================================================================
conv3d_transpose_116 (Conv3D (None, 65, 24, 16, 1)     33        
_________________________________________________________________
dropout_500 (Dropout)        (None, 65, 24, 16, 1)     0         
_________________________________________________________________
conv3d_transpose_117 (Conv3D (None, 65, 28, 16, 1)     6         
_________________________________________________________________
reshape_109 (Reshape)        (None, 1820, 16, 1)       0         
=================================================================
Total params: 39
Trainable params: 39
Non-trainable params: 0
_________________________________________________________________
None
Model: "sequential_455"
_________________________________________________________________
Layer (type)                 Output Shape              Param #   
=================================================================
conv2d_194 (Conv2D)          (None, 2350, 16, 1)       259       
_________________________________________________________________
dropout_502 (Dropout)        (None, 2350, 16, 1)       0         
_________________________________________________________________
conv2d_195 (Conv2D)          (None, 1820, 16, 1)       532       
=================================================================
Total params: 791
Trainable params: 791
Non-trainable params: 0
_________________________________________________________________
None
Model: "sequential_456"
_________________________________________________________________
Layer (type)                 Output Shape              Param #   
=================================================================
conv2d_transpose_194 (Conv2D (None, 2290, 16, 1)       472       
_________________________________________________________________
dropout_504 (Dropout)        (None, 2290, 16, 1)       0         
_________________________________________________________________
conv2d_transpose_195 (Conv2D (None, 2607, 16, 1)       319       
=================================================================
Total params: 791
Trainable params: 791
Non-trainable params: 0
_________________________________________________________________
None
Starting training
Encoder Loss:  0.058757596  || Decoder Loss:  0.012020311 Validation Decoder Loss:  0.42757604
Encoder Loss:  0.05561478  || Decoder Loss:  0.010643148 Validation Decoder Loss:  0.4102611
…
Encoder Loss:  0.028949764  || Decoder Loss:  0.0017409188 Validation Decoder Loss:  0.14638132
Encoder Loss:  0.02891602  || Decoder Loss:  0.0016791077 Validation Decoder Loss:  0.14144373
Encoder Loss:  0.028866582  || Decoder Loss:  0.0016028922 Validation Decoder Loss:  0.13817146
Model: bold_synthesis_net_lr_0.0007989793730603181 Train Intances: 2704 | Validation Instances: 64 | Validation Loss: 0.13817146
Model: "sequential_458"
_________________________________________________________________
Layer (type)                 Output Shape              Param #   
=================================================================
conv2d_196 (Conv2D)          (None, 2000, 16, 1)       609       
_________________________________________________________________
dropout_506 (Dropout)        (None, 2000, 16, 1)       0         
_________________________________________________________________
conv2d_197 (Conv2D)          (None, 1820, 16, 1)       182       
=================================================================
Total params: 791
Trainable params: 791
Non-trainable params: 0
_________________________________________________________________
None
Model: "sequential_459"
_________________________________________________________________
Layer (type)                 Output Shape              Param #   
=================================================================
conv2d_transpose_196 (Conv2D (None, 2130, 16, 1)       312       
_________________________________________________________________
dropout_508 (Dropout)        (None, 2130, 16, 1)       0         
_________________________________________________________________
conv2d_transpose_197 (Conv2D (None, 2607, 16, 1)       479       
=================================================================
Total params: 791
Trainable params: 791
Non-trainable params: 0
_________________________________________________________________
None
Model: "sequential_461"
_________________________________________________________________
Layer (type)                 Output Shape              Param #   
=================================================================
conv2d_198 (Conv2D)          (None, 1850, 16, 1)       759       
_________________________________________________________________
dropout_510 (Dropout)        (None, 1850, 16, 1)       0         
_________________________________________________________________
conv2d_199 (Conv2D)          (None, 1820, 16, 1)       32        
=================================================================
Total params: 791
Trainable params: 791
Non-trainable params: 0
_________________________________________________________________
None
Model: "sequential_462"
_________________________________________________________________
Layer (type)                 Output Shape              Param #   
=================================================================
conv2d_transpose_198 (Conv2D (None, 2600, 16, 1)       782       
_________________________________________________________________
dropout_512 (Dropout)        (None, 2600, 16, 1)       0         
_________________________________________________________________
conv2d_transpose_199 (Conv2D (None, 2607, 16, 1)       9         
=================================================================
Total params: 791
Trainable params: 791
Non-trainable params: 0
_________________________________________________________________
None
Model: "sequential_464"
_________________________________________________________________
Layer (type)                 Output Shape              Param #   
=================================================================
conv2d_200 (Conv2D)          (None, 2000, 16, 1)       609       
_________________________________________________________________
dropout_514 (Dropout)        (None, 2000, 16, 1)       0         
_________________________________________________________________
conv2d_201 (Conv2D)          (None, 1820, 16, 1)       182       
=================================================================
Total params: 791
Trainable params: 791
Non-trainable params: 0
_________________________________________________________________
None
Model: "sequential_465"
_________________________________________________________________
Layer (type)                 Output Shape              Param #   
=================================================================
conv2d_transpose_200 (Conv2D (None, 2140, 16, 1)       322       
_________________________________________________________________
dropout_516 (Dropout)        (None, 2140, 16, 1)       0         
_________________________________________________________________
conv2d_transpose_201 (Conv2D (None, 2607, 16, 1)       469       
=================================================================
Total params: 791
Trainable params: 791
Non-trainable params: 0
_________________________________________________________________
None
Model: "sequential_467"
_________________________________________________________________
Layer (type)                 Output Shape              Param #   
=================================================================
conv2d_202 (Conv2D)          (None, 1900, 16, 1)       709       
_________________________________________________________________
dropout_518 (Dropout)        (None, 1900, 16, 1)       0         
_________________________________________________________________
conv2d_203 (Conv2D)          (None, 1820, 16, 1)       82        
=================================================================
Total params: 791
Trainable params: 791
Non-trainable params: 0
_________________________________________________________________
None
Model: "sequential_468"
_________________________________________________________________
Layer (type)                 Output Shape              Param #   
=================================================================
conv2d_transpose_202 (Conv2D (None, 2210, 16, 1)       392       
_________________________________________________________________
dropout_520 (Dropout)        (None, 2210, 16, 1)       0         
_________________________________________________________________
conv2d_transpose_203 (Conv2D (None, 2607, 16, 1)       399       
=================================================================
Total params: 791
Trainable params: 791
Non-trainable params: 0
_________________________________________________________________
None
Model: "sequential_470"
_________________________________________________________________
Layer (type)                 Output Shape              Param #   
=================================================================
conv2d_204 (Conv2D)          (None, 2560, 16, 1)       49        
_________________________________________________________________
dropout_522 (Dropout)        (None, 2560, 16, 1)       0         
_________________________________________________________________
conv2d_205 (Conv2D)          (None, 1820, 16, 1)       742       
=================================================================
Total params: 791
Trainable params: 791
Non-trainable params: 0
_________________________________________________________________
None
Model: "sequential_471"
_________________________________________________________________
Layer (type)                 Output Shape              Param #   
=================================================================
conv2d_transpose_204 (Conv2D (None, 2380, 16, 1)       562       
_________________________________________________________________
dropout_524 (Dropout)        (None, 2380, 16, 1)       0         
_________________________________________________________________
conv2d_transpose_205 (Conv2D (None, 2607, 16, 1)       229       
=================================================================
Total params: 791
Trainable params: 791
Non-trainable params: 0
_________________________________________________________________
None
Model: "sequential_472"
_________________________________________________________________
Layer (type)                 Output Shape              Param #   
=================================================================
conv3d_transpose_119 (Conv3D (None, 65, 8, 16, 1)      9         
_________________________________________________________________
dropout_526 (Dropout)        (None, 65, 8, 16, 1)      0         
_________________________________________________________________
conv3d_transpose_120 (Conv3D (None, 65, 28, 16, 1)     8         
_________________________________________________________________
reshape_110 (Reshape)        (None, 1820, 16, 1)       0         
=================================================================
Total params: 17
Trainable params: 17
Non-trainable params: 0
_________________________________________________________________
None
Model: "sequential_474"
_________________________________________________________________
Layer (type)                 Output Shape              Param #   
=================================================================
conv2d_206 (Conv2D)          (None, 2340, 16, 1)       269       
_________________________________________________________________
dropout_528 (Dropout)        (None, 2340, 16, 1)       0         
_________________________________________________________________
conv2d_207 (Conv2D)          (None, 1820, 16, 1)       522       
=================================================================
Total params: 791
Trainable params: 791
Non-trainable params: 0
_________________________________________________________________
None
Model: "sequential_475"
_________________________________________________________________
Layer (type)                 Output Shape              Param #   
=================================================================
conv2d_transpose_206 (Conv2D (None, 2510, 16, 1)       692       
_________________________________________________________________
dropout_530 (Dropout)        (None, 2510, 16, 1)       0         
_________________________________________________________________
conv2d_transpose_207 (Conv2D (None, 2607, 16, 1)       99        
=================================================================
Total params: 791
Trainable params: 791
Non-trainable params: 0
_________________________________________________________________
None
Starting training
Encoder Loss:  0.06538267  || Decoder Loss:  0.0065351585 Validation Decoder Loss:  0.5464712
Encoder Loss:  0.061081216  || Decoder Loss:  0.006080751 Validation Decoder Loss:  0.5491351
…
Encoder Loss:  0.033341084  || Decoder Loss:  0.0016237004 Validation Decoder Loss:  0.27021223
Encoder Loss:  0.03333689  || Decoder Loss:  0.0016037958 Validation Decoder Loss:  0.24777544
Encoder Loss:  0.033327986  || Decoder Loss:  0.0015608198 Validation Decoder Loss:  0.26753682
Model: bold_synthesis_net_lr_0.0006425612395167177 Train Intances: 2704 | Validation Instances: 64 | Validation Loss: 0.26753682
Model: "sequential_477"
_________________________________________________________________
Layer (type)                 Output Shape              Param #   
=================================================================
conv2d_208 (Conv2D)          (None, 2290, 16, 1)       319       
_________________________________________________________________
dropout_532 (Dropout)        (None, 2290, 16, 1)       0         
_________________________________________________________________
conv2d_209 (Conv2D)          (None, 1820, 16, 1)       472       
=================================================================
Total params: 791
Trainable params: 791
Non-trainable params: 0
_________________________________________________________________
None
Model: "sequential_478"
_________________________________________________________________
Layer (type)                 Output Shape              Param #   
=================================================================
conv2d_transpose_208 (Conv2D (None, 2320, 16, 1)       502       
_________________________________________________________________
dropout_534 (Dropout)        (None, 2320, 16, 1)       0         
_________________________________________________________________
conv2d_transpose_209 (Conv2D (None, 2607, 16, 1)       289       
=================================================================
Total params: 791
Trainable params: 791
Non-trainable params: 0
_________________________________________________________________
None
Model: "sequential_480"
_________________________________________________________________
Layer (type)                 Output Shape              Param #   
=================================================================
conv2d_210 (Conv2D)          (None, 2290, 16, 1)       319       
_________________________________________________________________
dropout_536 (Dropout)        (None, 2290, 16, 1)       0         
_________________________________________________________________
conv2d_211 (Conv2D)          (None, 1820, 16, 1)       472       
=================================================================
Total params: 791
Trainable params: 791
Non-trainable params: 0
_________________________________________________________________
None
Model: "sequential_481"
_________________________________________________________________
Layer (type)                 Output Shape              Param #   
=================================================================
conv2d_transpose_210 (Conv2D (None, 2290, 16, 1)       472       
_________________________________________________________________
dropout_538 (Dropout)        (None, 2290, 16, 1)       0         
_________________________________________________________________
conv2d_transpose_211 (Conv2D (None, 2607, 16, 1)       319       
=================================================================
Total params: 791
Trainable params: 791
Non-trainable params: 0
_________________________________________________________________
None
Model: "sequential_483"
_________________________________________________________________
Layer (type)                 Output Shape              Param #   
=================================================================
conv2d_212 (Conv2D)          (None, 1950, 16, 1)       659       
_________________________________________________________________
dropout_540 (Dropout)        (None, 1950, 16, 1)       0         
_________________________________________________________________
conv2d_213 (Conv2D)          (None, 1820, 16, 1)       132       
=================================================================
Total params: 791
Trainable params: 791
Non-trainable params: 0
_________________________________________________________________
None
Model: "sequential_484"
_________________________________________________________________
Layer (type)                 Output Shape              Param #   
=================================================================
conv2d_transpose_212 (Conv2D (None, 2420, 16, 1)       602       
_________________________________________________________________
dropout_542 (Dropout)        (None, 2420, 16, 1)       0         
_________________________________________________________________
conv2d_transpose_213 (Conv2D (None, 2607, 16, 1)       189       
=================================================================
Total params: 791
Trainable params: 791
Non-trainable params: 0
_________________________________________________________________
None
Model: "sequential_486"
_________________________________________________________________
Layer (type)                 Output Shape              Param #   
=================================================================
conv2d_214 (Conv2D)          (None, 2360, 16, 1)       249       
_________________________________________________________________
dropout_544 (Dropout)        (None, 2360, 16, 1)       0         
_________________________________________________________________
conv2d_215 (Conv2D)          (None, 1820, 16, 1)       542       
=================================================================
Total params: 791
Trainable params: 791
Non-trainable params: 0
_________________________________________________________________
None
Model: "sequential_487"
_________________________________________________________________
Layer (type)                 Output Shape              Param #   
=================================================================
conv2d_transpose_214 (Conv2D (None, 2280, 16, 1)       462       
_________________________________________________________________
dropout_546 (Dropout)        (None, 2280, 16, 1)       0         
_________________________________________________________________
conv2d_transpose_215 (Conv2D (None, 2607, 16, 1)       329       
=================================================================
Total params: 791
Trainable params: 791
Non-trainable params: 0
_________________________________________________________________
None
Model: "sequential_489"
_________________________________________________________________
Layer (type)                 Output Shape              Param #   
=================================================================
conv2d_216 (Conv2D)          (None, 1890, 16, 1)       719       
_________________________________________________________________
dropout_548 (Dropout)        (None, 1890, 16, 1)       0         
_________________________________________________________________
conv2d_217 (Conv2D)          (None, 1820, 16, 1)       72        
=================================================================
Total params: 791
Trainable params: 791
Non-trainable params: 0
_________________________________________________________________
None
Model: "sequential_490"
_________________________________________________________________
Layer (type)                 Output Shape              Param #   
=================================================================
conv2d_transpose_216 (Conv2D (None, 2400, 16, 1)       582       
_________________________________________________________________
dropout_550 (Dropout)        (None, 2400, 16, 1)       0         
_________________________________________________________________
conv2d_transpose_217 (Conv2D (None, 2607, 16, 1)       209       
=================================================================
Total params: 791
Trainable params: 791
Non-trainable params: 0
_________________________________________________________________
None
Model: "sequential_492"
_________________________________________________________________
Layer (type)                 Output Shape              Param #   
=================================================================
conv2d_218 (Conv2D)          (None, 2080, 16, 1)       529       
_________________________________________________________________
dropout_552 (Dropout)        (None, 2080, 16, 1)       0         
_________________________________________________________________
conv2d_219 (Conv2D)          (None, 1820, 16, 1)       262       
=================================================================
Total params: 791
Trainable params: 791
Non-trainable params: 0
_________________________________________________________________
None
Model: "sequential_493"
_________________________________________________________________
Layer (type)                 Output Shape              Param #   
=================================================================
conv2d_transpose_218 (Conv2D (None, 2540, 16, 1)       722       
_________________________________________________________________
dropout_554 (Dropout)        (None, 2540, 16, 1)       0         
_________________________________________________________________
conv2d_transpose_219 (Conv2D (None, 2607, 16, 1)       69        
=================================================================
Total params: 791
Trainable params: 791
Non-trainable params: 0
_________________________________________________________________
None
Model: "sequential_495"
_________________________________________________________________
Layer (type)                 Output Shape              Param #   
=================================================================
conv2d_220 (Conv2D)          (None, 1940, 16, 1)       669       
_________________________________________________________________
dropout_556 (Dropout)        (None, 1940, 16, 1)       0         
_________________________________________________________________
conv2d_221 (Conv2D)          (None, 1820, 16, 1)       122       
=================================================================
Total params: 791
Trainable params: 791
Non-trainable params: 0
_________________________________________________________________
None
Model: "sequential_496"
_________________________________________________________________
Layer (type)                 Output Shape              Param #   
=================================================================
conv2d_transpose_220 (Conv2D (None, 2020, 16, 1)       202       
_________________________________________________________________
dropout_558 (Dropout)        (None, 2020, 16, 1)       0         
_________________________________________________________________
conv2d_transpose_221 (Conv2D (None, 2607, 16, 1)       589       
=================================================================
Total params: 791
Trainable params: 791
Non-trainable params: 0
_________________________________________________________________
None
Model: "sequential_498"
_________________________________________________________________
Layer (type)                 Output Shape              Param #   
=================================================================
conv2d_222 (Conv2D)          (None, 1850, 16, 1)       759       
_________________________________________________________________
dropout_560 (Dropout)        (None, 1850, 16, 1)       0         
_________________________________________________________________
conv2d_223 (Conv2D)          (None, 1820, 16, 1)       32        
=================================================================
Total params: 791
Trainable params: 791
Non-trainable params: 0
_________________________________________________________________
None
Model: "sequential_499"
_________________________________________________________________
Layer (type)                 Output Shape              Param #   
=================================================================
conv2d_transpose_222 (Conv2D (None, 2420, 16, 1)       602       
_________________________________________________________________
dropout_562 (Dropout)        (None, 2420, 16, 1)       0         
_________________________________________________________________
conv2d_transpose_223 (Conv2D (None, 2607, 16, 1)       189       
=================================================================
Total params: 791
Trainable params: 791
Non-trainable params: 0
_________________________________________________________________
None
Model: "sequential_501"
_________________________________________________________________
Layer (type)                 Output Shape              Param #   
=================================================================
conv2d_224 (Conv2D)          (None, 2390, 16, 1)       219       
_________________________________________________________________
dropout_564 (Dropout)        (None, 2390, 16, 1)       0         
_________________________________________________________________
conv2d_225 (Conv2D)          (None, 1820, 16, 1)       572       
=================================================================
Total params: 791
Trainable params: 791
Non-trainable params: 0
_________________________________________________________________
None
Model: "sequential_502"
_________________________________________________________________
Layer (type)                 Output Shape              Param #   
=================================================================
conv2d_transpose_224 (Conv2D (None, 2060, 16, 1)       242       
_________________________________________________________________
dropout_566 (Dropout)        (None, 2060, 16, 1)       0         
_________________________________________________________________
conv2d_transpose_225 (Conv2D (None, 2607, 16, 1)       549       
=================================================================
Total params: 791
Trainable params: 791
Non-trainable params: 0
_________________________________________________________________
None
Model: "sequential_504"
_________________________________________________________________
Layer (type)                 Output Shape              Param #   
=================================================================
conv2d_226 (Conv2D)          (None, 2460, 16, 1)       149       
_________________________________________________________________
dropout_568 (Dropout)        (None, 2460, 16, 1)       0         
_________________________________________________________________
conv2d_227 (Conv2D)          (None, 1820, 16, 1)       642       
=================================================================
Total params: 791
Trainable params: 791
Non-trainable params: 0
_________________________________________________________________
None
Model: "sequential_505"
_________________________________________________________________
Layer (type)                 Output Shape              Param #   
=================================================================
conv2d_transpose_226 (Conv2D (None, 2150, 16, 1)       332       
_________________________________________________________________
dropout_570 (Dropout)        (None, 2150, 16, 1)       0         
_________________________________________________________________
conv2d_transpose_227 (Conv2D (None, 2607, 16, 1)       459       
=================================================================
Total params: 791
Trainable params: 791
Non-trainable params: 0
_________________________________________________________________
None
Model: "sequential_507"
_________________________________________________________________
Layer (type)                 Output Shape              Param #   
=================================================================
conv2d_228 (Conv2D)          (None, 2380, 16, 1)       229       
_________________________________________________________________
dropout_572 (Dropout)        (None, 2380, 16, 1)       0         
_________________________________________________________________
conv2d_229 (Conv2D)          (None, 1820, 16, 1)       562       
=================================================================
Total params: 791
Trainable params: 791
Non-trainable params: 0
_________________________________________________________________
None
Model: "sequential_508"
_________________________________________________________________
Layer (type)                 Output Shape              Param #   
=================================================================
conv2d_transpose_228 (Conv2D (None, 2480, 16, 1)       662       
_________________________________________________________________
dropout_574 (Dropout)        (None, 2480, 16, 1)       0         
_________________________________________________________________
conv2d_transpose_229 (Conv2D (None, 2607, 16, 1)       129       
=================================================================
Total params: 791
Trainable params: 791
Non-trainable params: 0
_________________________________________________________________
None
Model: "sequential_510"
_________________________________________________________________
Layer (type)                 Output Shape              Param #   
=================================================================
conv2d_230 (Conv2D)          (None, 2380, 16, 1)       229       
_________________________________________________________________
dropout_576 (Dropout)        (None, 2380, 16, 1)       0         
_________________________________________________________________
conv2d_231 (Conv2D)          (None, 1820, 16, 1)       562       
=================================================================
Total params: 791
Trainable params: 791
Non-trainable params: 0
_________________________________________________________________
None
Model: "sequential_511"
_________________________________________________________________
Layer (type)                 Output Shape              Param #   
=================================================================
conv2d_transpose_230 (Conv2D (None, 2050, 16, 1)       232       
_________________________________________________________________
dropout_578 (Dropout)        (None, 2050, 16, 1)       0         
_________________________________________________________________
conv2d_transpose_231 (Conv2D (None, 2607, 16, 1)       559       
=================================================================
Total params: 791
Trainable params: 791
Non-trainable params: 0
_________________________________________________________________
None
Model: "sequential_513"
_________________________________________________________________
Layer (type)                 Output Shape              Param #   
=================================================================
conv2d_232 (Conv2D)          (None, 2400, 16, 1)       209       
_________________________________________________________________
dropout_580 (Dropout)        (None, 2400, 16, 1)       0         
_________________________________________________________________
conv2d_233 (Conv2D)          (None, 1820, 16, 1)       582       
=================================================================
Total params: 791
Trainable params: 791
Non-trainable params: 0
_________________________________________________________________
None
Model: "sequential_514"
_________________________________________________________________
Layer (type)                 Output Shape              Param #   
=================================================================
conv2d_transpose_232 (Conv2D (None, 2500, 16, 1)       682       
_________________________________________________________________
dropout_582 (Dropout)        (None, 2500, 16, 1)       0         
_________________________________________________________________
conv2d_transpose_233 (Conv2D (None, 2607, 16, 1)       109       
=================================================================
Total params: 791
Trainable params: 791
Non-trainable params: 0
_________________________________________________________________
None
Model: "sequential_516"
_________________________________________________________________
Layer (type)                 Output Shape              Param #   
=================================================================
conv2d_234 (Conv2D)          (None, 2160, 16, 1)       449       
_________________________________________________________________
dropout_584 (Dropout)        (None, 2160, 16, 1)       0         
_________________________________________________________________
conv2d_235 (Conv2D)          (None, 1820, 16, 1)       342       
=================================================================
Total params: 791
Trainable params: 791
Non-trainable params: 0
_________________________________________________________________
None
Model: "sequential_517"
_________________________________________________________________
Layer (type)                 Output Shape              Param #   
=================================================================
conv2d_transpose_234 (Conv2D (None, 2090, 16, 1)       272       
_________________________________________________________________
dropout_586 (Dropout)        (None, 2090, 16, 1)       0         
_________________________________________________________________
conv2d_transpose_235 (Conv2D (None, 2607, 16, 1)       519       
=================================================================
Total params: 791
Trainable params: 791
Non-trainable params: 0
_________________________________________________________________
None
Model: "sequential_519"
_________________________________________________________________
Layer (type)                 Output Shape              Param #   
=================================================================
conv2d_236 (Conv2D)          (None, 2380, 16, 1)       229       
_________________________________________________________________
dropout_588 (Dropout)        (None, 2380, 16, 1)       0         
_________________________________________________________________
conv2d_237 (Conv2D)          (None, 1820, 16, 1)       562       
=================================================================
Total params: 791
Trainable params: 791
Non-trainable params: 0
_________________________________________________________________
None
Model: "sequential_520"
_________________________________________________________________
Layer (type)                 Output Shape              Param #   
=================================================================
conv2d_transpose_236 (Conv2D (None, 2530, 16, 1)       712       
_________________________________________________________________
dropout_590 (Dropout)        (None, 2530, 16, 1)       0         
_________________________________________________________________
conv2d_transpose_237 (Conv2D (None, 2607, 16, 1)       79        
=================================================================
Total params: 791
Trainable params: 791
Non-trainable params: 0
_________________________________________________________________
None
Model: "sequential_521"
_________________________________________________________________
Layer (type)                 Output Shape              Param #   
=================================================================
conv3d_transpose_122 (Conv3D (None, 65, 16, 16, 1)     17        
_________________________________________________________________
dropout_592 (Dropout)        (None, 65, 16, 16, 1)     0         
_________________________________________________________________
conv3d_transpose_123 (Conv3D (None, 65, 28, 16, 1)     14        
_________________________________________________________________
reshape_111 (Reshape)        (None, 1820, 16, 1)       0         
=================================================================
Total params: 31
Trainable params: 31
Non-trainable params: 0
_________________________________________________________________
None
Model: "sequential_523"
_________________________________________________________________
Layer (type)                 Output Shape              Param #   
=================================================================
conv2d_238 (Conv2D)          (None, 2440, 16, 1)       169       
_________________________________________________________________
dropout_594 (Dropout)        (None, 2440, 16, 1)       0         
_________________________________________________________________
conv2d_239 (Conv2D)          (None, 1820, 16, 1)       622       
=================================================================
Total params: 791
Trainable params: 791
Non-trainable params: 0
_________________________________________________________________
None
Model: "sequential_524"
_________________________________________________________________
Layer (type)                 Output Shape              Param #   
=================================================================
conv2d_transpose_238 (Conv2D (None, 1910, 16, 1)       92        
_________________________________________________________________
dropout_596 (Dropout)        (None, 1910, 16, 1)       0         
_________________________________________________________________
conv2d_transpose_239 (Conv2D (None, 2607, 16, 1)       699       
=================================================================
Total params: 791
Trainable params: 791
Non-trainable params: 0
_________________________________________________________________
None
Starting training
Encoder Loss:  0.026750661  || Decoder Loss:  0.009718179 Validation Decoder Loss:  0.45777184
Encoder Loss:  0.026679821  || Decoder Loss:  0.009793012 Validation Decoder Loss:  0.4553644
…
Encoder Loss:  0.021354234  || Decoder Loss:  0.0064538373 Validation Decoder Loss:  0.5016494
Encoder Loss:  0.02127623  || Decoder Loss:  0.006431834 Validation Decoder Loss:  0.5033065
Encoder Loss:  0.021199679  || Decoder Loss:  0.0064128325 Validation Decoder Loss:  0.5051426
Model: bold_synthesis_net_lr_0.00029883631907402395 Train Intances: 2704 | Validation Instances: 64 | Validation Loss: 0.5051427
Model: "sequential_526"
_________________________________________________________________
Layer (type)                 Output Shape              Param #   
=================================================================
conv2d_240 (Conv2D)          (None, 2140, 16, 1)       469       
_________________________________________________________________
dropout_598 (Dropout)        (None, 2140, 16, 1)       0         
_________________________________________________________________
conv2d_241 (Conv2D)          (None, 1820, 16, 1)       322       
=================================================================
Total params: 791
Trainable params: 791
Non-trainable params: 0
_________________________________________________________________
None
Model: "sequential_527"
_________________________________________________________________
Layer (type)                 Output Shape              Param #   
=================================================================
conv2d_transpose_240 (Conv2D (None, 2160, 16, 1)       342       
_________________________________________________________________
dropout_600 (Dropout)        (None, 2160, 16, 1)       0         
_________________________________________________________________
conv2d_transpose_241 (Conv2D (None, 2607, 16, 1)       449       
=================================================================
Total params: 791
Trainable params: 791
Non-trainable params: 0
_________________________________________________________________
None
Model: "sequential_528"
_________________________________________________________________
Layer (type)                 Output Shape              Param #   
=================================================================
conv3d_transpose_125 (Conv3D (None, 65, 8, 16, 1)      9         
_________________________________________________________________
dropout_602 (Dropout)        (None, 65, 8, 16, 1)      0         
_________________________________________________________________
conv3d_transpose_126 (Conv3D (None, 65, 28, 16, 1)     8         
_________________________________________________________________
reshape_112 (Reshape)        (None, 1820, 16, 1)       0         
=================================================================
Total params: 17
Trainable params: 17
Non-trainable params: 0
_________________________________________________________________
None
Model: "sequential_530"
_________________________________________________________________
Layer (type)                 Output Shape              Param #   
=================================================================
conv2d_242 (Conv2D)          (None, 2330, 16, 1)       279       
_________________________________________________________________
dropout_604 (Dropout)        (None, 2330, 16, 1)       0         
_________________________________________________________________
conv2d_243 (Conv2D)          (None, 1820, 16, 1)       512       
=================================================================
Total params: 791
Trainable params: 791
Non-trainable params: 0
_________________________________________________________________
None
Model: "sequential_531"
_________________________________________________________________
Layer (type)                 Output Shape              Param #   
=================================================================
conv2d_transpose_242 (Conv2D (None, 2530, 16, 1)       712       
_________________________________________________________________
dropout_606 (Dropout)        (None, 2530, 16, 1)       0         
_________________________________________________________________
conv2d_transpose_243 (Conv2D (None, 2607, 16, 1)       79        
=================================================================
Total params: 791
Trainable params: 791
Non-trainable params: 0
_________________________________________________________________
None
Starting training
Encoder Loss:  0.02884613  || Decoder Loss:  0.008134342 Validation Decoder Loss:  0.5692373
Encoder Loss:  0.025551487  || Decoder Loss:  0.006537227 Validation Decoder Loss:  0.5522692
…
Encoder Loss:  0.015295009  || Decoder Loss:  0.0046340865 Validation Decoder Loss:  0.7609601
Encoder Loss:  0.015194587  || Decoder Loss:  0.004626881 Validation Decoder Loss:  0.76095545
Encoder Loss:  0.01510136  || Decoder Loss:  0.004620364 Validation Decoder Loss:  0.76095176
Model: bold_synthesis_net_lr_0.0007085613371884913 Train Intances: 2704 | Validation Instances: 64 | Validation Loss: 0.76095176
Model: "sequential_533"
_________________________________________________________________
Layer (type)                 Output Shape              Param #   
=================================================================
conv2d_244 (Conv2D)          (None, 2450, 16, 1)       159       
_________________________________________________________________
dropout_608 (Dropout)        (None, 2450, 16, 1)       0         
_________________________________________________________________
conv2d_245 (Conv2D)          (None, 1820, 16, 1)       632       
=================================================================
Total params: 791
Trainable params: 791
Non-trainable params: 0
_________________________________________________________________
None
Model: "sequential_534"
_________________________________________________________________
Layer (type)                 Output Shape              Param #   
=================================================================
conv2d_transpose_244 (Conv2D (None, 2030, 16, 1)       212       
_________________________________________________________________
dropout_610 (Dropout)        (None, 2030, 16, 1)       0         
_________________________________________________________________
conv2d_transpose_245 (Conv2D (None, 2607, 16, 1)       579       
=================================================================
Total params: 791
Trainable params: 791
Non-trainable params: 0
_________________________________________________________________
None
Model: "sequential_536"
_________________________________________________________________
Layer (type)                 Output Shape              Param #   
=================================================================
conv2d_246 (Conv2D)          (None, 2340, 16, 1)       269       
_________________________________________________________________
dropout_612 (Dropout)        (None, 2340, 16, 1)       0         
_________________________________________________________________
conv2d_247 (Conv2D)          (None, 1820, 16, 1)       522       
=================================================================
Total params: 791
Trainable params: 791
Non-trainable params: 0
_________________________________________________________________
None
Model: "sequential_537"
_________________________________________________________________
Layer (type)                 Output Shape              Param #   
=================================================================
conv2d_transpose_246 (Conv2D (None, 2320, 16, 1)       502       
_________________________________________________________________
dropout_614 (Dropout)        (None, 2320, 16, 1)       0         
_________________________________________________________________
conv2d_transpose_247 (Conv2D (None, 2607, 16, 1)       289       
=================================================================
Total params: 791
Trainable params: 791
Non-trainable params: 0
_________________________________________________________________
None
Model: "sequential_539"
_________________________________________________________________
Layer (type)                 Output Shape              Param #   
=================================================================
conv2d_248 (Conv2D)          (None, 2310, 16, 1)       299       
_________________________________________________________________
dropout_616 (Dropout)        (None, 2310, 16, 1)       0         
_________________________________________________________________
conv2d_249 (Conv2D)          (None, 1820, 16, 1)       492       
=================================================================
Total params: 791
Trainable params: 791
Non-trainable params: 0
_________________________________________________________________
None
Model: "sequential_540"
_________________________________________________________________
Layer (type)                 Output Shape              Param #   
=================================================================
conv2d_transpose_248 (Conv2D (None, 2340, 16, 1)       522       
_________________________________________________________________
dropout_618 (Dropout)        (None, 2340, 16, 1)       0         
_________________________________________________________________
conv2d_transpose_249 (Conv2D (None, 2607, 16, 1)       269       
=================================================================
Total params: 791
Trainable params: 791
Non-trainable params: 0
_________________________________________________________________
None
Model: "sequential_542"
_________________________________________________________________
Layer (type)                 Output Shape              Param #   
=================================================================
conv2d_250 (Conv2D)          (None, 2420, 16, 1)       189       
_________________________________________________________________
dropout_620 (Dropout)        (None, 2420, 16, 1)       0         
_________________________________________________________________
conv2d_251 (Conv2D)          (None, 1820, 16, 1)       602       
=================================================================
Total params: 791
Trainable params: 791
Non-trainable params: 0
_________________________________________________________________
None
Model: "sequential_543"
_________________________________________________________________
Layer (type)                 Output Shape              Param #   
=================================================================
conv2d_transpose_250 (Conv2D (None, 1930, 16, 1)       112       
_________________________________________________________________
dropout_622 (Dropout)        (None, 1930, 16, 1)       0         
_________________________________________________________________
conv2d_transpose_251 (Conv2D (None, 2607, 16, 1)       679       
=================================================================
Total params: 791
Trainable params: 791
Non-trainable params: 0
_________________________________________________________________
None
Model: "sequential_545"
_________________________________________________________________
Layer (type)                 Output Shape              Param #   
=================================================================
conv2d_252 (Conv2D)          (None, 2360, 16, 1)       249       
_________________________________________________________________
dropout_624 (Dropout)        (None, 2360, 16, 1)       0         
_________________________________________________________________
conv2d_253 (Conv2D)          (None, 1820, 16, 1)       542       
=================================================================
Total params: 791
Trainable params: 791
Non-trainable params: 0
_________________________________________________________________
None
Model: "sequential_546"
_________________________________________________________________
Layer (type)                 Output Shape              Param #   
=================================================================
conv2d_transpose_252 (Conv2D (None, 2250, 16, 1)       432       
_________________________________________________________________
dropout_626 (Dropout)        (None, 2250, 16, 1)       0         
_________________________________________________________________
conv2d_transpose_253 (Conv2D (None, 2607, 16, 1)       359       
=================================================================
Total params: 791
Trainable params: 791
Non-trainable params: 0
_________________________________________________________________
None
Model: "sequential_547"
_________________________________________________________________
Layer (type)                 Output Shape              Param #   
=================================================================
conv3d_transpose_128 (Conv3D (None, 65, 10, 16, 1)     5         
_________________________________________________________________
dropout_628 (Dropout)        (None, 65, 10, 16, 1)     0         
_________________________________________________________________
conv3d_transpose_129 (Conv3D (None, 65, 28, 16, 1)     20        
_________________________________________________________________
reshape_113 (Reshape)        (None, 1820, 16, 1)       0         
=================================================================
Total params: 25
Trainable params: 25
Non-trainable params: 0
_________________________________________________________________
None
Model: "sequential_549"
_________________________________________________________________
Layer (type)                 Output Shape              Param #   
=================================================================
conv2d_254 (Conv2D)          (None, 2140, 16, 1)       469       
_________________________________________________________________
dropout_630 (Dropout)        (None, 2140, 16, 1)       0         
_________________________________________________________________
conv2d_255 (Conv2D)          (None, 1820, 16, 1)       322       
=================================================================
Total params: 791
Trainable params: 791
Non-trainable params: 0
_________________________________________________________________
None
Model: "sequential_550"
_________________________________________________________________
Layer (type)                 Output Shape              Param #   
=================================================================
conv2d_transpose_254 (Conv2D (None, 2000, 16, 1)       182       
_________________________________________________________________
dropout_632 (Dropout)        (None, 2000, 16, 1)       0         
_________________________________________________________________
conv2d_transpose_255 (Conv2D (None, 2607, 16, 1)       609       
=================================================================
Total params: 791
Trainable params: 791
Non-trainable params: 0
_________________________________________________________________
None
Starting training
Encoder Loss:  0.061235067  || Decoder Loss:  0.008803498 Validation Decoder Loss:  0.7186203
Encoder Loss:  0.061069272  || Decoder Loss:  0.008802998 Validation Decoder Loss:  0.71557975
…
Encoder Loss:  0.053521812  || Decoder Loss:  0.008784168 Validation Decoder Loss:  0.6516633
Encoder Loss:  0.05335852  || Decoder Loss:  0.008783246 Validation Decoder Loss:  0.65045804
Encoder Loss:  0.053213153  || Decoder Loss:  0.008781974 Validation Decoder Loss:  0.6494061
Model: bold_synthesis_net_lr_4.162807777527938e-05 Train Intances: 2704 | Validation Instances: 64 | Validation Loss: 0.6494061
Model: "sequential_552"
_________________________________________________________________
Layer (type)                 Output Shape              Param #   
=================================================================
conv2d_256 (Conv2D)          (None, 2570, 16, 1)       39        
_________________________________________________________________
dropout_634 (Dropout)        (None, 2570, 16, 1)       0         
_________________________________________________________________
conv2d_257 (Conv2D)          (None, 1820, 16, 1)       752       
=================================================================
Total params: 791
Trainable params: 791
Non-trainable params: 0
_________________________________________________________________
None
Model: "sequential_553"
_________________________________________________________________
Layer (type)                 Output Shape              Param #   
=================================================================
conv2d_transpose_256 (Conv2D (None, 2150, 16, 1)       332       
_________________________________________________________________
dropout_636 (Dropout)        (None, 2150, 16, 1)       0         
_________________________________________________________________
conv2d_transpose_257 (Conv2D (None, 2607, 16, 1)       459       
=================================================================
Total params: 791
Trainable params: 791
Non-trainable params: 0
_________________________________________________________________
None
Model: "sequential_554"
_________________________________________________________________
Layer (type)                 Output Shape              Param #   
=================================================================
conv3d_transpose_131 (Conv3D (None, 65, 6, 16, 1)      5         
_________________________________________________________________
dropout_638 (Dropout)        (None, 65, 6, 16, 1)      0         
_________________________________________________________________
conv3d_transpose_132 (Conv3D (None, 65, 28, 16, 1)     24        
_________________________________________________________________
reshape_114 (Reshape)        (None, 1820, 16, 1)       0         
=================================================================
Total params: 29
Trainable params: 29
Non-trainable params: 0
_________________________________________________________________
None
Model: "sequential_556"
_________________________________________________________________
Layer (type)                 Output Shape              Param #   
=================================================================
conv2d_258 (Conv2D)          (None, 2130, 16, 1)       479       
_________________________________________________________________
dropout_640 (Dropout)        (None, 2130, 16, 1)       0         
_________________________________________________________________
conv2d_259 (Conv2D)          (None, 1820, 16, 1)       312       
=================================================================
Total params: 791
Trainable params: 791
Non-trainable params: 0
_________________________________________________________________
None
Model: "sequential_557"
_________________________________________________________________
Layer (type)                 Output Shape              Param #   
=================================================================
conv2d_transpose_258 (Conv2D (None, 2410, 16, 1)       592       
_________________________________________________________________
dropout_642 (Dropout)        (None, 2410, 16, 1)       0         
_________________________________________________________________
conv2d_transpose_259 (Conv2D (None, 2607, 16, 1)       199       
=================================================================
Total params: 791
Trainable params: 791
Non-trainable params: 0
_________________________________________________________________
None
Starting training
Encoder Loss:  0.043804385  || Decoder Loss:  0.007620503 Validation Decoder Loss:  0.5702105
Encoder Loss:  0.0425318  || Decoder Loss:  0.0081583075 Validation Decoder Loss:  0.63342434
…
Encoder Loss:  0.02007187  || Decoder Loss:  0.0006314554 Validation Decoder Loss:  0.08074657
Encoder Loss:  0.020060154  || Decoder Loss:  0.00059763645 Validation Decoder Loss:  0.06614365
Encoder Loss:  0.020066347  || Decoder Loss:  0.00062318426 Validation Decoder Loss:  0.06861323
Model: bold_synthesis_net_lr_0.0009402965845054339 Train Intances: 2704 | Validation Instances: 64 | Validation Loss: 0.06861323
Model: "sequential_559"
_________________________________________________________________
Layer (type)                 Output Shape              Param #   
=================================================================
conv2d_260 (Conv2D)          (None, 2320, 16, 1)       289       
_________________________________________________________________
dropout_644 (Dropout)        (None, 2320, 16, 1)       0         
_________________________________________________________________
conv2d_261 (Conv2D)          (None, 1820, 16, 1)       502       
=================================================================
Total params: 791
Trainable params: 791
Non-trainable params: 0
_________________________________________________________________
None
Model: "sequential_560"
_________________________________________________________________
Layer (type)                 Output Shape              Param #   
=================================================================
conv2d_transpose_260 (Conv2D (None, 2550, 16, 1)       732       
_________________________________________________________________
dropout_646 (Dropout)        (None, 2550, 16, 1)       0         
_________________________________________________________________
conv2d_transpose_261 (Conv2D (None, 2607, 16, 1)       59        
=================================================================
Total params: 791
Trainable params: 791
Non-trainable params: 0
_________________________________________________________________
None
Model: "sequential_561"
_________________________________________________________________
Layer (type)                 Output Shape              Param #   
=================================================================
conv3d_transpose_134 (Conv3D (None, 65, 24, 16, 1)     33        
_________________________________________________________________
dropout_648 (Dropout)        (None, 65, 24, 16, 1)     0         
_________________________________________________________________
conv3d_transpose_135 (Conv3D (None, 65, 28, 16, 1)     6         
_________________________________________________________________
reshape_115 (Reshape)        (None, 1820, 16, 1)       0         
=================================================================
Total params: 39
Trainable params: 39
Non-trainable params: 0
_________________________________________________________________
None
Model: "sequential_563"
_________________________________________________________________
Layer (type)                 Output Shape              Param #   
=================================================================
conv2d_262 (Conv2D)          (None, 1910, 16, 1)       699       
_________________________________________________________________
dropout_650 (Dropout)        (None, 1910, 16, 1)       0         
_________________________________________________________________
conv2d_263 (Conv2D)          (None, 1820, 16, 1)       92        
=================================================================
Total params: 791
Trainable params: 791
Non-trainable params: 0
_________________________________________________________________
None
Model: "sequential_564"
_________________________________________________________________
Layer (type)                 Output Shape              Param #   
=================================================================
conv2d_transpose_262 (Conv2D (None, 2020, 16, 1)       202       
_________________________________________________________________
dropout_652 (Dropout)        (None, 2020, 16, 1)       0         
_________________________________________________________________
conv2d_transpose_263 (Conv2D (None, 2607, 16, 1)       589       
=================================================================
Total params: 791
Trainable params: 791
Non-trainable params: 0
_________________________________________________________________
None
Starting training
Encoder Loss:  0.061683416  || Decoder Loss:  0.009204731 Validation Decoder Loss:  0.52951807
Encoder Loss:  0.0519169  || Decoder Loss:  0.006164174 Validation Decoder Loss:  0.5406661
…
Encoder Loss:  0.0282  || Decoder Loss:  0.002383792 Validation Decoder Loss:  0.5221356
Encoder Loss:  0.028193567  || Decoder Loss:  0.0023734681 Validation Decoder Loss:  0.51815665
Encoder Loss:  0.028182039  || Decoder Loss:  0.0023476186 Validation Decoder Loss:  0.51965266
Model: bold_synthesis_net_lr_0.0006312088075035166 Train Intances: 2704 | Validation Instances: 64 | Validation Loss: 0.51965266
Model: "sequential_565"
_________________________________________________________________
Layer (type)                 Output Shape              Param #   
=================================================================
conv3d_transpose_137 (Conv3D (None, 65, 8, 16, 1)      9         
_________________________________________________________________
dropout_654 (Dropout)        (None, 65, 8, 16, 1)      0         
_________________________________________________________________
conv3d_transpose_138 (Conv3D (None, 65, 28, 16, 1)     15        
_________________________________________________________________
reshape_116 (Reshape)        (None, 1820, 16, 1)       0         
=================================================================
Total params: 24
Trainable params: 24
Non-trainable params: 0
_________________________________________________________________
None
Model: "sequential_567"
_________________________________________________________________
Layer (type)                 Output Shape              Param #   
=================================================================
conv2d_264 (Conv2D)          (None, 2340, 16, 1)       269       
_________________________________________________________________
dropout_656 (Dropout)        (None, 2340, 16, 1)       0         
_________________________________________________________________
conv2d_265 (Conv2D)          (None, 1820, 16, 1)       522       
=================================================================
Total params: 791
Trainable params: 791
Non-trainable params: 0
_________________________________________________________________
None
Model: "sequential_568"
_________________________________________________________________
Layer (type)                 Output Shape              Param #   
=================================================================
conv2d_transpose_264 (Conv2D (None, 2490, 16, 1)       672       
_________________________________________________________________
dropout_658 (Dropout)        (None, 2490, 16, 1)       0         
_________________________________________________________________
conv2d_transpose_265 (Conv2D (None, 2607, 16, 1)       119       
=================================================================
Total params: 791
Trainable params: 791
Non-trainable params: 0
_________________________________________________________________
None
Starting training
Encoder Loss:  0.02638436  || Decoder Loss:  0.0067218323 Validation Decoder Loss:  0.49171203
Encoder Loss:  0.026078047  || Decoder Loss:  0.0070931334 Validation Decoder Loss:  0.48723602
…
Encoder Loss:  0.012271615  || Decoder Loss:  0.002380539 Validation Decoder Loss:  0.30094743
Encoder Loss:  0.012144462  || Decoder Loss:  0.0022216982 Validation Decoder Loss:  0.3018903
Encoder Loss:  0.012041494  || Decoder Loss:  0.0020949387 Validation Decoder Loss:  0.28846586
Model: bold_synthesis_net_lr_0.0002175561522989398 Train Intances: 2704 | Validation Instances: 64 | Validation Loss: 0.28846586
Model: "sequential_570"
_________________________________________________________________
Layer (type)                 Output Shape              Param #   
=================================================================
conv2d_266 (Conv2D)          (None, 2350, 16, 1)       259       
_________________________________________________________________
dropout_660 (Dropout)        (None, 2350, 16, 1)       0         
_________________________________________________________________
conv2d_267 (Conv2D)          (None, 1820, 16, 1)       532       
=================================================================
Total params: 791
Trainable params: 791
Non-trainable params: 0
_________________________________________________________________
None
Model: "sequential_571"
_________________________________________________________________
Layer (type)                 Output Shape              Param #   
=================================================================
conv2d_transpose_266 (Conv2D (None, 2510, 16, 1)       692       
_________________________________________________________________
dropout_662 (Dropout)        (None, 2510, 16, 1)       0         
_________________________________________________________________
conv2d_transpose_267 (Conv2D (None, 2607, 16, 1)       99        
=================================================================
Total params: 791
Trainable params: 791
Non-trainable params: 0
_________________________________________________________________
None
Model: "sequential_573"
_________________________________________________________________
Layer (type)                 Output Shape              Param #   
=================================================================
conv2d_268 (Conv2D)          (None, 2370, 16, 1)       239       
_________________________________________________________________
dropout_664 (Dropout)        (None, 2370, 16, 1)       0         
_________________________________________________________________
conv2d_269 (Conv2D)          (None, 1820, 16, 1)       552       
=================================================================
Total params: 791
Trainable params: 791
Non-trainable params: 0
_________________________________________________________________
None
Model: "sequential_574"
_________________________________________________________________
Layer (type)                 Output Shape              Param #   
=================================================================
conv2d_transpose_268 (Conv2D (None, 2520, 16, 1)       702       
_________________________________________________________________
dropout_666 (Dropout)        (None, 2520, 16, 1)       0         
_________________________________________________________________
conv2d_transpose_269 (Conv2D (None, 2607, 16, 1)       89        
=================================================================
Total params: 791
Trainable params: 791
Non-trainable params: 0
_________________________________________________________________
None
Model: "sequential_576"
_________________________________________________________________
Layer (type)                 Output Shape              Param #   
=================================================================
conv2d_270 (Conv2D)          (None, 2130, 16, 1)       479       
_________________________________________________________________
dropout_668 (Dropout)        (None, 2130, 16, 1)       0         
_________________________________________________________________
conv2d_271 (Conv2D)          (None, 1820, 16, 1)       312       
=================================================================
Total params: 791
Trainable params: 791
Non-trainable params: 0
_________________________________________________________________
None
Model: "sequential_577"
_________________________________________________________________
Layer (type)                 Output Shape              Param #   
=================================================================
conv2d_transpose_270 (Conv2D (None, 2030, 16, 1)       212       
_________________________________________________________________
dropout_670 (Dropout)        (None, 2030, 16, 1)       0         
_________________________________________________________________
conv2d_transpose_271 (Conv2D (None, 2607, 16, 1)       579       
=================================================================
Total params: 791
Trainable params: 791
Non-trainable params: 0
_________________________________________________________________
None
Model: "sequential_579"
_________________________________________________________________
Layer (type)                 Output Shape              Param #   
=================================================================
conv2d_272 (Conv2D)          (None, 2310, 16, 1)       299       
_________________________________________________________________
dropout_672 (Dropout)        (None, 2310, 16, 1)       0         
_________________________________________________________________
conv2d_273 (Conv2D)          (None, 1820, 16, 1)       492       
=================================================================
Total params: 791
Trainable params: 791
Non-trainable params: 0
_________________________________________________________________
None
Model: "sequential_580"
_________________________________________________________________
Layer (type)                 Output Shape              Param #   
=================================================================
conv2d_transpose_272 (Conv2D (None, 2500, 16, 1)       682       
_________________________________________________________________
dropout_674 (Dropout)        (None, 2500, 16, 1)       0         
_________________________________________________________________
conv2d_transpose_273 (Conv2D (None, 2607, 16, 1)       109       
=================================================================
Total params: 791
Trainable params: 791
Non-trainable params: 0
_________________________________________________________________
None
Model: "sequential_581"
_________________________________________________________________
Layer (type)                 Output Shape              Param #   
=================================================================
conv3d_transpose_140 (Conv3D (None, 65, 8, 16, 1)      9         
_________________________________________________________________
dropout_676 (Dropout)        (None, 65, 8, 16, 1)      0         
_________________________________________________________________
conv3d_transpose_141 (Conv3D (None, 65, 28, 16, 1)     15        
_________________________________________________________________
reshape_117 (Reshape)        (None, 1820, 16, 1)       0         
=================================================================
Total params: 24
Trainable params: 24
Non-trainable params: 0
_________________________________________________________________
None
Model: "sequential_583"
_________________________________________________________________
Layer (type)                 Output Shape              Param #   
=================================================================
conv2d_274 (Conv2D)          (None, 2350, 16, 1)       259       
_________________________________________________________________
dropout_678 (Dropout)        (None, 2350, 16, 1)       0         
_________________________________________________________________
conv2d_275 (Conv2D)          (None, 1820, 16, 1)       532       
=================================================================
Total params: 791
Trainable params: 791
Non-trainable params: 0
_________________________________________________________________
None
Model: "sequential_584"
_________________________________________________________________
Layer (type)                 Output Shape              Param #   
=================================================================
conv2d_transpose_274 (Conv2D (None, 2480, 16, 1)       662       
_________________________________________________________________
dropout_680 (Dropout)        (None, 2480, 16, 1)       0         
_________________________________________________________________
conv2d_transpose_275 (Conv2D (None, 2607, 16, 1)       129       
=================================================================
Total params: 791
Trainable params: 791
Non-trainable params: 0
_________________________________________________________________
None
Starting training
Encoder Loss:  0.018081777  || Decoder Loss:  0.0067101475 Validation Decoder Loss:  0.52894026
Encoder Loss:  0.018014228  || Decoder Loss:  0.006749556 Validation Decoder Loss:  0.52338445
…
Encoder Loss:  0.017525973  || Decoder Loss:  0.0073750755 Validation Decoder Loss:  0.474991
Encoder Loss:  0.01748032  || Decoder Loss:  0.007348144 Validation Decoder Loss:  0.47502252
Encoder Loss:  0.017439276  || Decoder Loss:  0.007322916 Validation Decoder Loss:  0.4750085
Model: bold_synthesis_net_lr_3.004710402327799e-05 Train Intances: 2704 | Validation Instances: 64 | Validation Loss: 0.47500852
Model: "sequential_586"
_________________________________________________________________
Layer (type)                 Output Shape              Param #   
=================================================================
conv2d_276 (Conv2D)          (None, 2360, 16, 1)       249       
_________________________________________________________________
dropout_682 (Dropout)        (None, 2360, 16, 1)       0         
_________________________________________________________________
conv2d_277 (Conv2D)          (None, 1820, 16, 1)       542       
=================================================================
Total params: 791
Trainable params: 791
Non-trainable params: 0
_________________________________________________________________
None
Model: "sequential_587"
_________________________________________________________________
Layer (type)                 Output Shape              Param #   
=================================================================
conv2d_transpose_276 (Conv2D (None, 2060, 16, 1)       242       
_________________________________________________________________
dropout_684 (Dropout)        (None, 2060, 16, 1)       0         
_________________________________________________________________
conv2d_transpose_277 (Conv2D (None, 2607, 16, 1)       549       
=================================================================
Total params: 791
Trainable params: 791
Non-trainable params: 0
_________________________________________________________________
None
Model: "sequential_589"
_________________________________________________________________
Layer (type)                 Output Shape              Param #   
=================================================================
conv2d_278 (Conv2D)          (None, 2370, 16, 1)       239       
_________________________________________________________________
dropout_686 (Dropout)        (None, 2370, 16, 1)       0         
_________________________________________________________________
conv2d_279 (Conv2D)          (None, 1820, 16, 1)       552       
=================================================================
Total params: 791
Trainable params: 791
Non-trainable params: 0
_________________________________________________________________
None
Model: "sequential_590"
_________________________________________________________________
Layer (type)                 Output Shape              Param #   
=================================================================
conv2d_transpose_278 (Conv2D (None, 2300, 16, 1)       482       
_________________________________________________________________
dropout_688 (Dropout)        (None, 2300, 16, 1)       0         
_________________________________________________________________
conv2d_transpose_279 (Conv2D (None, 2607, 16, 1)       309       
=================================================================
Total params: 791
Trainable params: 791
Non-trainable params: 0
_________________________________________________________________
None
Model: "sequential_592"
_________________________________________________________________
Layer (type)                 Output Shape              Param #   
=================================================================
conv2d_280 (Conv2D)          (None, 2140, 16, 1)       469       
_________________________________________________________________
dropout_690 (Dropout)        (None, 2140, 16, 1)       0         
_________________________________________________________________
conv2d_281 (Conv2D)          (None, 1820, 16, 1)       322       
=================================================================
Total params: 791
Trainable params: 791
Non-trainable params: 0
_________________________________________________________________
None
Model: "sequential_593"
_________________________________________________________________
Layer (type)                 Output Shape              Param #   
=================================================================
conv2d_transpose_280 (Conv2D (None, 2400, 16, 1)       582       
_________________________________________________________________
dropout_692 (Dropout)        (None, 2400, 16, 1)       0         
_________________________________________________________________
conv2d_transpose_281 (Conv2D (None, 2607, 16, 1)       209       
=================================================================
Total params: 791
Trainable params: 791
Non-trainable params: 0
_________________________________________________________________
None
Model: "sequential_595"
_________________________________________________________________
Layer (type)                 Output Shape              Param #   
=================================================================
conv2d_282 (Conv2D)          (None, 2170, 16, 1)       439       
_________________________________________________________________
dropout_694 (Dropout)        (None, 2170, 16, 1)       0         
_________________________________________________________________
conv2d_283 (Conv2D)          (None, 1820, 16, 1)       352       
=================================================================
Total params: 791
Trainable params: 791
Non-trainable params: 0
_________________________________________________________________
None
Model: "sequential_596"
_________________________________________________________________
Layer (type)                 Output Shape              Param #   
=================================================================
conv2d_transpose_282 (Conv2D (None, 2260, 16, 1)       442       
_________________________________________________________________
dropout_696 (Dropout)        (None, 2260, 16, 1)       0         
_________________________________________________________________
conv2d_transpose_283 (Conv2D (None, 2607, 16, 1)       349       
=================================================================
Total params: 791
Trainable params: 791
Non-trainable params: 0
_________________________________________________________________
None
Model: "sequential_598"
_________________________________________________________________
Layer (type)                 Output Shape              Param #   
=================================================================
conv2d_284 (Conv2D)          (None, 2570, 16, 1)       39        
_________________________________________________________________
dropout_698 (Dropout)        (None, 2570, 16, 1)       0         
_________________________________________________________________
conv2d_285 (Conv2D)          (None, 1820, 16, 1)       752       
=================================================================
Total params: 791
Trainable params: 791
Non-trainable params: 0
_________________________________________________________________
None
Model: "sequential_599"
_________________________________________________________________
Layer (type)                 Output Shape              Param #   
=================================================================
conv2d_transpose_284 (Conv2D (None, 2410, 16, 1)       592       
_________________________________________________________________
dropout_700 (Dropout)        (None, 2410, 16, 1)       0         
_________________________________________________________________
conv2d_transpose_285 (Conv2D (None, 2607, 16, 1)       199       
=================================================================
Total params: 791
Trainable params: 791
Non-trainable params: 0
_________________________________________________________________
None
Model: "sequential_601"
_________________________________________________________________
Layer (type)                 Output Shape              Param #   
=================================================================
conv2d_286 (Conv2D)          (None, 2130, 16, 1)       479       
_________________________________________________________________
dropout_702 (Dropout)        (None, 2130, 16, 1)       0         
_________________________________________________________________
conv2d_287 (Conv2D)          (None, 1820, 16, 1)       312       
=================================================================
Total params: 791
Trainable params: 791
Non-trainable params: 0
_________________________________________________________________
None
Model: "sequential_602"
_________________________________________________________________
Layer (type)                 Output Shape              Param #   
=================================================================
conv2d_transpose_286 (Conv2D (None, 2000, 16, 1)       182       
_________________________________________________________________
dropout_704 (Dropout)        (None, 2000, 16, 1)       0         
_________________________________________________________________
conv2d_transpose_287 (Conv2D (None, 2607, 16, 1)       609       
=================================================================
Total params: 791
Trainable params: 791
Non-trainable params: 0
_________________________________________________________________
None
Model: "sequential_604"
_________________________________________________________________
Layer (type)                 Output Shape              Param #   
=================================================================
conv2d_288 (Conv2D)          (None, 1950, 16, 1)       659       
_________________________________________________________________
dropout_706 (Dropout)        (None, 1950, 16, 1)       0         
_________________________________________________________________
conv2d_289 (Conv2D)          (None, 1820, 16, 1)       132       
=================================================================
Total params: 791
Trainable params: 791
Non-trainable params: 0
_________________________________________________________________
None
Model: "sequential_605"
_________________________________________________________________
Layer (type)                 Output Shape              Param #   
=================================================================
conv2d_transpose_288 (Conv2D (None, 2200, 16, 1)       382       
_________________________________________________________________
dropout_708 (Dropout)        (None, 2200, 16, 1)       0         
_________________________________________________________________
conv2d_transpose_289 (Conv2D (None, 2607, 16, 1)       409       
=================================================================
Total params: 791
Trainable params: 791
Non-trainable params: 0
_________________________________________________________________
None
Model: "sequential_606"
_________________________________________________________________
Layer (type)                 Output Shape              Param #   
=================================================================
conv3d_transpose_143 (Conv3D (None, 64, 10, 16, 1)     3         
_________________________________________________________________
dropout_710 (Dropout)        (None, 64, 10, 16, 1)     0         
_________________________________________________________________
conv3d_transpose_144 (Conv3D (None, 65, 28, 16, 1)     39        
_________________________________________________________________
reshape_118 (Reshape)        (None, 1820, 16, 1)       0         
=================================================================
Total params: 42
Trainable params: 42
Non-trainable params: 0
_________________________________________________________________
None
Model: "sequential_608"
_________________________________________________________________
Layer (type)                 Output Shape              Param #   
=================================================================
conv2d_290 (Conv2D)          (None, 2160, 16, 1)       449       
_________________________________________________________________
dropout_712 (Dropout)        (None, 2160, 16, 1)       0         
_________________________________________________________________
conv2d_291 (Conv2D)          (None, 1820, 16, 1)       342       
=================================================================
Total params: 791
Trainable params: 791
Non-trainable params: 0
_________________________________________________________________
None
Model: "sequential_609"
_________________________________________________________________
Layer (type)                 Output Shape              Param #   
=================================================================
conv2d_transpose_290 (Conv2D (None, 2020, 16, 1)       202       
_________________________________________________________________
dropout_714 (Dropout)        (None, 2020, 16, 1)       0         
_________________________________________________________________
conv2d_transpose_291 (Conv2D (None, 2607, 16, 1)       589       
=================================================================
Total params: 791
Trainable params: 791
Non-trainable params: 0
_________________________________________________________________
None
Starting training
Encoder Loss:  0.018235203  || Decoder Loss:  0.008783536 Validation Decoder Loss:  0.76474124
Encoder Loss:  0.01793084  || Decoder Loss:  0.008779814 Validation Decoder Loss:  0.7647312
…
Encoder Loss:  0.014329645  || Decoder Loss:  0.008147321 Validation Decoder Loss:  0.7658169
Encoder Loss:  0.013833611  || Decoder Loss:  0.007828413 Validation Decoder Loss:  0.7660966
Encoder Loss:  0.012790638  || Decoder Loss:  0.006977992 Validation Decoder Loss:  0.76567197
Model: bold_synthesis_net_lr_0.00017293322475265456 Train Intances: 2704 | Validation Instances: 64 | Validation Loss: 0.76567197
Model: "sequential_610"
_________________________________________________________________
Layer (type)                 Output Shape              Param #   
=================================================================
conv3d_transpose_146 (Conv3D (None, 65, 20, 16, 1)     17        
_________________________________________________________________
dropout_716 (Dropout)        (None, 65, 20, 16, 1)     0         
_________________________________________________________________
conv3d_transpose_147 (Conv3D (None, 65, 28, 16, 1)     10        
_________________________________________________________________
reshape_119 (Reshape)        (None, 1820, 16, 1)       0         
=================================================================
Total params: 27
Trainable params: 27
Non-trainable params: 0
_________________________________________________________________
None
Model: "sequential_612"
_________________________________________________________________
Layer (type)                 Output Shape              Param #   
=================================================================
conv2d_292 (Conv2D)          (None, 2350, 16, 1)       259       
_________________________________________________________________
dropout_718 (Dropout)        (None, 2350, 16, 1)       0         
_________________________________________________________________
conv2d_293 (Conv2D)          (None, 1820, 16, 1)       532       
=================================================================
Total params: 791
Trainable params: 791
Non-trainable params: 0
_________________________________________________________________
None
Model: "sequential_613"
_________________________________________________________________
Layer (type)                 Output Shape              Param #   
=================================================================
conv2d_transpose_292 (Conv2D (None, 2130, 16, 1)       312       
_________________________________________________________________
dropout_720 (Dropout)        (None, 2130, 16, 1)       0         
_________________________________________________________________
conv2d_transpose_293 (Conv2D (None, 2607, 16, 1)       479       
=================================================================
Total params: 791
Trainable params: 791
Non-trainable params: 0
_________________________________________________________________
None
Starting training
Encoder Loss:  0.06569987  || Decoder Loss:  0.0066566993 Validation Decoder Loss:  0.5254846
Encoder Loss:  0.06356888  || Decoder Loss:  0.0068810275 Validation Decoder Loss:  0.514946
…
Encoder Loss:  0.05444869  || Decoder Loss:  0.006572041 Validation Decoder Loss:  0.49428707
Encoder Loss:  0.054331627  || Decoder Loss:  0.0065633575 Validation Decoder Loss:  0.49465984
Encoder Loss:  0.054221574  || Decoder Loss:  0.006547583 Validation Decoder Loss:  0.4950348
Model: bold_synthesis_net_lr_0.00012126314682431134 Train Intances: 2704 | Validation Instances: 64 | Validation Loss: 0.4950348
Model: "sequential_615"
_________________________________________________________________
Layer (type)                 Output Shape              Param #   
=================================================================
conv2d_294 (Conv2D)          (None, 1910, 16, 1)       699       
_________________________________________________________________
dropout_722 (Dropout)        (None, 1910, 16, 1)       0         
_________________________________________________________________
conv2d_295 (Conv2D)          (None, 1820, 16, 1)       92        
=================================================================
Total params: 791
Trainable params: 791
Non-trainable params: 0
_________________________________________________________________
None
Model: "sequential_616"
_________________________________________________________________
Layer (type)                 Output Shape              Param #   
=================================================================
conv2d_transpose_294 (Conv2D (None, 2000, 16, 1)       182       
_________________________________________________________________
dropout_724 (Dropout)        (None, 2000, 16, 1)       0         
_________________________________________________________________
conv2d_transpose_295 (Conv2D (None, 2607, 16, 1)       609       
=================================================================
Total params: 791
Trainable params: 791
Non-trainable params: 0
_________________________________________________________________
None
Model: "sequential_617"
_________________________________________________________________
Layer (type)                 Output Shape              Param #   
=================================================================
conv3d_transpose_149 (Conv3D (None, 65, 16, 16, 1)     17        
_________________________________________________________________
dropout_726 (Dropout)        (None, 65, 16, 16, 1)     0         
_________________________________________________________________
conv3d_transpose_150 (Conv3D (None, 65, 28, 16, 1)     14        
_________________________________________________________________
reshape_120 (Reshape)        (None, 1820, 16, 1)       0         
=================================================================
Total params: 31
Trainable params: 31
Non-trainable params: 0
_________________________________________________________________
None
Model: "sequential_619"
_________________________________________________________________
Layer (type)                 Output Shape              Param #   
=================================================================
conv2d_296 (Conv2D)          (None, 2420, 16, 1)       189       
_________________________________________________________________
dropout_728 (Dropout)        (None, 2420, 16, 1)       0         
_________________________________________________________________
conv2d_297 (Conv2D)          (None, 1820, 16, 1)       602       
=================================================================
Total params: 791
Trainable params: 791
Non-trainable params: 0
_________________________________________________________________
None
Model: "sequential_620"
_________________________________________________________________
Layer (type)                 Output Shape              Param #   
=================================================================
conv2d_transpose_296 (Conv2D (None, 1920, 16, 1)       102       
_________________________________________________________________
dropout_730 (Dropout)        (None, 1920, 16, 1)       0         
_________________________________________________________________
conv2d_transpose_297 (Conv2D (None, 2607, 16, 1)       689       
=================================================================
Total params: 791
Trainable params: 791
Non-trainable params: 0
_________________________________________________________________
None
Starting training
Encoder Loss:  0.03731193  || Decoder Loss:  0.009412273 Validation Decoder Loss:  0.44233888
Encoder Loss:  0.036247015  || Decoder Loss:  0.008912003 Validation Decoder Loss:  0.45817333
…
Encoder Loss:  0.018184943  || Decoder Loss:  0.0021932188 Validation Decoder Loss:  0.2936639
Encoder Loss:  0.018164592  || Decoder Loss:  0.002165615 Validation Decoder Loss:  0.28959146
Encoder Loss:  0.018141478  || Decoder Loss:  0.0021342393 Validation Decoder Loss:  0.2834897
Model: bold_synthesis_net_lr_0.0008701250216798988 Train Intances: 2704 | Validation Instances: 64 | Validation Loss: 0.2834897
Model: "sequential_622"
_________________________________________________________________
Layer (type)                 Output Shape              Param #   
=================================================================
conv2d_298 (Conv2D)          (None, 2190, 16, 1)       419       
_________________________________________________________________
dropout_732 (Dropout)        (None, 2190, 16, 1)       0         
_________________________________________________________________
conv2d_299 (Conv2D)          (None, 1820, 16, 1)       372       
=================================================================
Total params: 791
Trainable params: 791
Non-trainable params: 0
_________________________________________________________________
None
Model: "sequential_623"
_________________________________________________________________
Layer (type)                 Output Shape              Param #   
=================================================================
conv2d_transpose_298 (Conv2D (None, 2460, 16, 1)       642       
_________________________________________________________________
dropout_734 (Dropout)        (None, 2460, 16, 1)       0         
_________________________________________________________________
conv2d_transpose_299 (Conv2D (None, 2607, 16, 1)       149       
=================================================================
Total params: 791
Trainable params: 791
Non-trainable params: 0
_________________________________________________________________
None
Model: "sequential_625"
_________________________________________________________________
Layer (type)                 Output Shape              Param #   
=================================================================
conv2d_300 (Conv2D)          (None, 2420, 16, 1)       189       
_________________________________________________________________
dropout_736 (Dropout)        (None, 2420, 16, 1)       0         
_________________________________________________________________
conv2d_301 (Conv2D)          (None, 1820, 16, 1)       602       
=================================================================
Total params: 791
Trainable params: 791
Non-trainable params: 0
_________________________________________________________________
None
Model: "sequential_626"
_________________________________________________________________
Layer (type)                 Output Shape              Param #   
=================================================================
conv2d_transpose_300 (Conv2D (None, 2080, 16, 1)       262       
_________________________________________________________________
dropout_738 (Dropout)        (None, 2080, 16, 1)       0         
_________________________________________________________________
conv2d_transpose_301 (Conv2D (None, 2607, 16, 1)       529       
=================================================================
Total params: 791
Trainable params: 791
Non-trainable params: 0
_________________________________________________________________
None
Model: "sequential_628"
_________________________________________________________________
Layer (type)                 Output Shape              Param #   
=================================================================
conv2d_302 (Conv2D)          (None, 2430, 16, 1)       179       
_________________________________________________________________
dropout_740 (Dropout)        (None, 2430, 16, 1)       0         
_________________________________________________________________
conv2d_303 (Conv2D)          (None, 1820, 16, 1)       612       
=================================================================
Total params: 791
Trainable params: 791
Non-trainable params: 0
_________________________________________________________________
None
Model: "sequential_629"
_________________________________________________________________
Layer (type)                 Output Shape              Param #   
=================================================================
conv2d_transpose_302 (Conv2D (None, 1920, 16, 1)       102       
_________________________________________________________________
dropout_742 (Dropout)        (None, 1920, 16, 1)       0         
_________________________________________________________________
conv2d_transpose_303 (Conv2D (None, 2607, 16, 1)       689       
=================================================================
Total params: 791
Trainable params: 791
Non-trainable params: 0
_________________________________________________________________
None
Model: "sequential_631"
_________________________________________________________________
Layer (type)                 Output Shape              Param #   
=================================================================
conv2d_304 (Conv2D)          (None, 2390, 16, 1)       219       
_________________________________________________________________
dropout_744 (Dropout)        (None, 2390, 16, 1)       0         
_________________________________________________________________
conv2d_305 (Conv2D)          (None, 1820, 16, 1)       572       
=================================================================
Total params: 791
Trainable params: 791
Non-trainable params: 0
_________________________________________________________________
None
Model: "sequential_632"
_________________________________________________________________
Layer (type)                 Output Shape              Param #   
=================================================================
conv2d_transpose_304 (Conv2D (None, 1910, 16, 1)       92        
_________________________________________________________________
dropout_746 (Dropout)        (None, 1910, 16, 1)       0         
_________________________________________________________________
conv2d_transpose_305 (Conv2D (None, 2607, 16, 1)       699       
=================================================================
Total params: 791
Trainable params: 791
Non-trainable params: 0
_________________________________________________________________
None
Model: "sequential_634"
_________________________________________________________________
Layer (type)                 Output Shape              Param #   
=================================================================
conv2d_306 (Conv2D)          (None, 2170, 16, 1)       439       
_________________________________________________________________
dropout_748 (Dropout)        (None, 2170, 16, 1)       0         
_________________________________________________________________
conv2d_307 (Conv2D)          (None, 1820, 16, 1)       352       
=================================================================
Total params: 791
Trainable params: 791
Non-trainable params: 0
_________________________________________________________________
None
Model: "sequential_635"
_________________________________________________________________
Layer (type)                 Output Shape              Param #   
=================================================================
conv2d_transpose_306 (Conv2D (None, 2000, 16, 1)       182       
_________________________________________________________________
dropout_750 (Dropout)        (None, 2000, 16, 1)       0         
_________________________________________________________________
conv2d_transpose_307 (Conv2D (None, 2607, 16, 1)       609       
=================================================================
Total params: 791
Trainable params: 791
Non-trainable params: 0
_________________________________________________________________
None
Model: "sequential_637"
_________________________________________________________________
Layer (type)                 Output Shape              Param #   
=================================================================
conv2d_308 (Conv2D)          (None, 2330, 16, 1)       279       
_________________________________________________________________
dropout_752 (Dropout)        (None, 2330, 16, 1)       0         
_________________________________________________________________
conv2d_309 (Conv2D)          (None, 1820, 16, 1)       512       
=================================================================
Total params: 791
Trainable params: 791
Non-trainable params: 0
_________________________________________________________________
None
Model: "sequential_638"
_________________________________________________________________
Layer (type)                 Output Shape              Param #   
=================================================================
conv2d_transpose_308 (Conv2D (None, 2130, 16, 1)       312       
_________________________________________________________________
dropout_754 (Dropout)        (None, 2130, 16, 1)       0         
_________________________________________________________________
conv2d_transpose_309 (Conv2D (None, 2607, 16, 1)       479       
=================================================================
Total params: 791
Trainable params: 791
Non-trainable params: 0
_________________________________________________________________
None
Model: "sequential_639"
_________________________________________________________________
Layer (type)                 Output Shape              Param #   
=================================================================
conv3d_transpose_152 (Conv3D (None, 65, 6, 16, 1)      5         
_________________________________________________________________
dropout_756 (Dropout)        (None, 65, 6, 16, 1)      0         
_________________________________________________________________
conv3d_transpose_153 (Conv3D (None, 65, 28, 16, 1)     14        
_________________________________________________________________
reshape_121 (Reshape)        (None, 1820, 16, 1)       0         
=================================================================
Total params: 19
Trainable params: 19
Non-trainable params: 0
_________________________________________________________________
None
Model: "sequential_641"
_________________________________________________________________
Layer (type)                 Output Shape              Param #   
=================================================================
conv2d_310 (Conv2D)          (None, 2130, 16, 1)       479       
_________________________________________________________________
dropout_758 (Dropout)        (None, 2130, 16, 1)       0         
_________________________________________________________________
conv2d_311 (Conv2D)          (None, 1820, 16, 1)       312       
=================================================================
Total params: 791
Trainable params: 791
Non-trainable params: 0
_________________________________________________________________
None
Model: "sequential_642"
_________________________________________________________________
Layer (type)                 Output Shape              Param #   
=================================================================
conv2d_transpose_310 (Conv2D (None, 2410, 16, 1)       592       
_________________________________________________________________
dropout_760 (Dropout)        (None, 2410, 16, 1)       0         
_________________________________________________________________
conv2d_transpose_311 (Conv2D (None, 2607, 16, 1)       199       
=================================================================
Total params: 791
Trainable params: 791
Non-trainable params: 0
_________________________________________________________________
None
Starting training
Encoder Loss:  0.043685336  || Decoder Loss:  0.008595097 Validation Decoder Loss:  0.60036236
Encoder Loss:  0.041940458  || Decoder Loss:  0.008234944 Validation Decoder Loss:  0.6083205
…
Encoder Loss:  0.02005884  || Decoder Loss:  0.00049672596 Validation Decoder Loss:  0.035696037
Encoder Loss:  0.020072766  || Decoder Loss:  0.0005142357 Validation Decoder Loss:  0.04057978
Encoder Loss:  0.02003583  || Decoder Loss:  0.00047328247 Validation Decoder Loss:  0.033648588
Model: bold_synthesis_net_lr_0.0009402966384863515 Train Intances: 2704 | Validation Instances: 64 | Validation Loss: 0.03364859
Model: "sequential_644"
_________________________________________________________________
Layer (type)                 Output Shape              Param #   
=================================================================
conv2d_312 (Conv2D)          (None, 2120, 16, 1)       489       
_________________________________________________________________
dropout_762 (Dropout)        (None, 2120, 16, 1)       0         
_________________________________________________________________
conv2d_313 (Conv2D)          (None, 1820, 16, 1)       302       
=================================================================
Total params: 791
Trainable params: 791
Non-trainable params: 0
_________________________________________________________________
None
Model: "sequential_645"
_________________________________________________________________
Layer (type)                 Output Shape              Param #   
=================================================================
conv2d_transpose_312 (Conv2D (None, 2390, 16, 1)       572       
_________________________________________________________________
dropout_764 (Dropout)        (None, 2390, 16, 1)       0         
_________________________________________________________________
conv2d_transpose_313 (Conv2D (None, 2607, 16, 1)       219       
=================================================================
Total params: 791
Trainable params: 791
Non-trainable params: 0
_________________________________________________________________
None
Model: "sequential_647"
_________________________________________________________________
Layer (type)                 Output Shape              Param #   
=================================================================
conv2d_314 (Conv2D)          (None, 1900, 16, 1)       709       
_________________________________________________________________
dropout_766 (Dropout)        (None, 1900, 16, 1)       0         
_________________________________________________________________
conv2d_315 (Conv2D)          (None, 1820, 16, 1)       82        
=================================================================
Total params: 791
Trainable params: 791
Non-trainable params: 0
_________________________________________________________________
None
Model: "sequential_648"
_________________________________________________________________
Layer (type)                 Output Shape              Param #   
=================================================================
conv2d_transpose_314 (Conv2D (None, 2040, 16, 1)       222       
_________________________________________________________________
dropout_768 (Dropout)        (None, 2040, 16, 1)       0         
_________________________________________________________________
conv2d_transpose_315 (Conv2D (None, 2607, 16, 1)       569       
=================================================================
Total params: 791
Trainable params: 791
Non-trainable params: 0
_________________________________________________________________
None
Optimizing at level  3
FINISHED NAS
best_loss, best_depth 0.04061190038919449 2
[(65, 28, 16, 1)] [(1820, 16, 1)]
[(1820, 16, 1)] [(1820, 16, 1)]
[(2607, 16, 1)] [(1820, 16, 1)]
